dino_ppo.pt (torch, 148945 bytes, 11 tensors)

policy.0.weight f4 [128, 8]
00000000: 58f6 193e 8f05 483f ced0 19bf 4ecb c63e
00000010: 5b53 12be f63b 133e 59ae 22be 4383 933e
00000020: 642f 173f 0410 9bbe 9ff5 183f 4bc8 693d
00000030: 94f9 293e d7f8 c23d 09f3 6b3e bfbc 81be
00000040: 111f e13e fa24 573d 5cda 00bf 874e ba3d
00000050: 7d94 91bd b168 f3bd 9c7d 4ebe 3550 0f3f
00000060: 17e2 5fbe ff12 b8be b5bc ebbe cbb0 e7be
00000070: fcec 123e 8d1a 04bf 54f9 bb3e 535c 42bc
00000080: 6fb8 163f 6031 b33e f7a4 8dbe 1e6a a13e
00000090: 30a6 c13d 30fd df3e 0a38 7fbe ec97 4fbe
000000a0: 0e30 a2bd 68ab 2f3e c304 533e d5d9 213f
000000b0: 7237 933e 4950 08bf ba4b 003f 4484 183e
000000c0: 136a febd f6db f3be 7cc0 45bf 7efd ad3d
000000d0: 5e3c 8fbe d4c1 ca3d 88b2 d43e 66bd c73e
000000e0: 522f a33e d8bc c13e 7cc5 6d3f 5eeb 9dbe
000000f0: 9476 c8bd 35a0 efbd fc57 fb3d 108b 50be
00000100: b2bb 053f 1ebb 433e 1e41 473f bafe f7be
00000110: 3aa1 6fbe 0abf 93be 02de df3e 3674 b93d
00000120: 2e72 953e fda2 42bf f490 35bf 3ad3 64be
00000130: d667 94be ea1a 103e 58f5 483e 1b0c 173f
00000140: b4e5 cabe ebfd 42bf d9f7 a03e d022 c2bd
00000150: ab37 b93e 5ae5 b8be 08b8 b03e 2295 7bbe
00000160: 67ee edbe 9e0d 103e 56c3 1c3f 112a ad3d
00000170: 7138 153e 8571 933e d566 55be 5c03 cbbe
00000180: eccd 7b3f d60c 0bbf 8b94 93be 6a3d a8be
00000190: f982 16be e099 e93d 765a 2cbe 435c 00be
000001a0: a1ae 953d ec40 04bf 7283 65bf b3ef 7abe
000001b0: 6c62 c3be d120 4ebe 8ba1 f23e 031c 813e
000001c0: 8dc7 eb3d 99b1 56bf 7c39 23bf 73e3 5cbe
000001d0: 0c28 1e3d 0fdb 9fbe 90e7 15be 6941 b43d
000001e0: c5b1 293e cc1d 33bf 4021 33bd 860e e5be
000001f0: e698 15b9 b3b4 ccbe 46f8 4bbe 5357 26be
00000200: 1f9b 433e c781 97bd e9d5 6b3f fef1 6f3e
00000210: 3ff2 10be 6e13 8c3e cd1d bfbe 2eac 91be
00000220: 434a d7be 22a0 39bf 23bc 42be b5bc 1bbe
00000230: 8de5 ea3d ce91 b3be 789f bd3e 44cb 913b
00000240: 920a d6be 041e 093d 94df 033e ffb4 113f
00000250: b649 a33e 9e94 c0be 353e 3a3e 10dd abbe
00000260: 2d0f 063d d19f 91be 0572 0e3f b35b 9cbe
00000270: 4a85 613e 116b 7d3e 7ba1 cfbd 73cc 75be
00000280: 9c2a fa3e 13d7 1e3d 50ce b73e b4ba d7be
00000290: 2d61 ac3e b4a3 78be ddb1 52be dd25 883f
000002a0: 77a9 11bd 0186 1dbf 2f65 49bf ebff fcbd
000002b0: 10cf 05b9 d9b4 be3c 3462 8fbd e706 9f3e
000002c0: 3b87 43be d5fd b53e e80e 463f 2f30 9ebe
000002d0: 3576 c93d 3af9 233e bef6 913d e99d 1bbf
000002e0: dfae 663e a951 cf3e f277 8c3e 6e88 803d
000002f0: 9dbf 3abd 3737 1e3d e4d4 0ebe b09e bebe
00000300: c1a8 ff3e 3c69 023f 84d6 953e 4155 85be
00000310: a1d0 903e 7632 23be 94e2 59be 7252 e4bc
00000320: a10a e6be 8f79 b33d ba20 8b3e db28 35bb
00000330: 5822 50bd 594a 75bd e3df cabe 5091 d8be
00000340: d92b 8cbe d17b d63e 580e 3b3f 4c07 953e
00000350: 8341 ccbe d5f3 ddbd 294b 7cbd a1f7 b63c
00000360: f1e5 f5bc 724f b4be 261e 213f 5e1c 543c
00000370: 1765 d9bd cc0b be3e 5c27 f5be 727e 38be
00000380: eb14 26bf 7329 2c3f 2879 c23e ceec 3d3e
00000390: e2c2 e0be 8d55 7cbe 0d44 27be 8c02 033e
000003a0: 8fa6 a33e 5a8f 333f dde2 273f c866 f93d
000003b0: e386 09bd 54d3 61be 8e52 adbe a90d c1be
000003c0: 75fb ba3e eed1 42bf 126f 8abe 65fb 8bbe
000003d0: c02e 9cbd 26a1 32be 357f a5be 0986 38bc
000003e0: 907e d4bd 1550 613f e2da babc b5d0 b1be
000003f0: c24b b8be ce1d 1c3d 492e 8b3d bb57 36be
0.15035379 0.7813348 -0.60084236 0.38826984 -0.1428961 0.14378342 -0.15886821 0.28811082
0.5905669 -0.30285656 0.5974979 0.05707578 0.16599113 0.09520119 0.2304193 -0.25339314
0.43969014 0.052525498 -0.5033319 0.09097009 -0.071084 -0.11885203 -0.20165104 0.5598176
-0.2186359 -0.35951993 -0.4604241 -0.4525207 0.14348215 -0.51603013 0.3671366 -0.011862832
0.58875173 0.34998608 -0.2766492 0.31526273 0.09455526 0.43747854 -0.24923721 -0.20272797
-0.07919322 0.1715523 0.20607285 0.6322301 0.2875324 -0.53247505 0.5011555 0.14894205
-0.12422576 -0.47628754 -0.7724683 0.084956154 -0.27975744 0.09900251 0.4154246 0.39011687
0.3187204 0.3783939 0.9287946 -0.30843633 -0.09788242 -0.11700479 0.12272641 -0.20365548
0.52239525 0.19114348 0.77833736 -0.48436528 -0.23401347 -0.2885669 0.43724066 0.090553686
0.29188675 -0.7602995 -0.70924306 -0.22346202 -0.2898547 0.14072767 0.19624841 0.59002846
-0.39628375 -0.761687 0.31439093 -0.09479296 0.36175284 -0.3611248 0.34515405 -0.24568608
-0.4647095 0.14067695 0.6123556 0.08455289 0.14572312 0.28797546 -0.20840009 -0.39651
0.98361087 -0.5431646 -0.28824267 -0.32859355 -0.146984 0.114063025 -0.16831383 -0.12535195
0.073086984 -0.5166156 -0.89653695 -0.245055 -0.38161027 -0.20129706 0.47388873 0.25216684
0.11512671 -0.8386474 -0.6375959 -0.2157114 0.03861241 -0.31221816 -0.14639115 0.088015385
0.1657172 -0.6996734 -0.04373288 -0.44737643 -0.00014266706 -0.39981613 -0.19918928 -0.16244249
0.19102143 -0.073978 0.92123276 0.23432156 -0.1415491 0.27358574 -0.37327424 -0.28451675
-0.42048845 -0.7250997 -0.19017081 -0.15208705 0.114695646 -0.35072178 0.37035728 0.00444928
-0.4180494 0.03347589 0.12878257 0.56916803 0.31892174 -0.37613386 0.18187793 -0.33567095
0.032729317 -0.28442243 0.5564273 -0.3053871 0.22023502 0.24747874 -0.10138222 -0.24003772
0.48860633 0.03877933 0.3589959 -0.4213463 0.3366789 -0.24281198 -0.20575662 1.0636555
-0.035562005 -0.615326 -0.7867002 -0.123535 -0.00012761005 0.023279594 -0.07001153 0.31059954
-0.19094555 0.3554522 0.77366495 -0.30896136 0.09836999 0.16013041 0.071271405 -0.60787827
0.22527646 0.4049199 0.2743526 0.06276022 -0.045592893 0.038626876 -0.13948399 -0.37230444
0.49933437 0.50941825 0.29265225 -0.26041606 0.2828417 -0.15937218 -0.21277839 -0.027871344
-0.44929984 0.0876342 0.27173406 -0.002764276 -0.050814003 -0.059885357 -0.39623937 -0.42298365
-0.27377203 0.4189134 0.7306876 0.2910713 -0.3989373 -0.10837523 -0.061595116 0.022334876
-0.030016871 -0.35216862 0.6293663 0.012946216 -0.106149845 0.37118375 -0.4788159 -0.18016985
-0.6487567 0.67250746 0.3798306 0.18547365 -0.43898684 -0.2464201 -0.16334553 0.1279394
0.31963012 0.7014061 0.6558054 0.12177807 -0.033575904 -0.22053272 -0.33852047 -0.37705734
0.3651997 -0.7610158 -0.27037865 -0.27340236 -0.07626104 -0.17444286 -0.32323614 -0.011262425
-0.103757024 0.8801282 -0.02280945 -0.34729543 -0.359953 0.03811436 0.067959376 -0.17806904

policy.0.bias f4 [128]
00000000: 88a5 013e 6f40 abbd 1c90 573e 9210 4abe
00000010: 79eb 693e e4e1 e2be 3605 7b3e cb09 3cbe
00000020: 7479 123e 11d6 08bf c552 293d f024 853e
00000030: a0c9 a93e e6ba e6bc 47c9 203d d346 373e
00000040: f281 0fbf c31b 1c3f 055c 36bd 71e0 563e
00000050: 2f52 62be e25e 7dbe 385a 593d 7baa 6c3e
00000060: 8784 813e 5dcd 09bf 1f49 0b3f 79b1 21be
00000070: dba9 02bf c49e 1dbe 341b 1e3f b862 84be
00000080: a7be 1abe 567a cbbe a766 edbd 56d7 c4be
00000090: 9dfe b1bc 07d8 383d 757d 0f3f 9aba b93e
000000a0: 1b71 cdbe 1a0a 9f3e c74a c6be 775e 073f
000000b0: b495 1f3e 016e b93e abfd cd3e bca2 a63e
000000c0: 4416 0f3e 63d4 da3e 3ab9 5cbe 257c 823e
000000d0: b395 7abe e16b 583e 11fb 02bf 844e 00bf
000000e0: 6ec6 e8bd 3fb4 99be 0e85 d9be 8922 f0be
000000f0: 7278 aa3e 4308 ef3e 7da4 313f 48e9 c63e
00000100: 190b 83bd 1f10 45bf b89b bf3e f32d 643e
00000110: 56be acbe c60c b23e 7cdc 013f 2863 63b8
00000120: e856 03bf c01a c13e 660e 973e c11c 043f
00000130: 45c1 b4be 6f6f 883e b41c 1ebf f5f2 193f
00000140: 2ae0 2abe ce39 ab3e ab04 853e 40d5 be3d
00000150: 1d81 32be 2c85 8a3d 319b edbe 980d 16bf
00000160: 00eb 85be fd2c 153f 3284 88bc 515b b73e
00000170: 55bb 35be 67a5 c73e 53fc 073e aadb ed3e
00000180: 0811 02be fd30 d1be 2b15 393d 8272 debe
00000190: 884c e13e 1e7c 59be d26a 653e 58b2 203f
000001a0: 51cf c73e 4b25 533e f7e6 0ebf 8de9 ec3e
000001b0: 4b70 cc3d 1e84 0ebf 65ca 013f 9536 4ebe
000001c0: 502c 9fbd c95f e93e 075a e6be 7a15 6fbe
000001d0: ff4c 1e3e cb98 eabc 9970 263c 81a9 53be
000001e0: e3c3 b83d dc02 1bbe c9ff 89bc 9885 8fbe
000001f0: d8fd e53e f8c0 ac3e 7f4d 25bf 27e9 b13e
0.12660801 -0.08361899 0.21051067 -0.19732884 0.22843732 -0.44312966 0.24513707 -0.1836311
0.14304143 -0.5345164 0.0413387 0.26004744 0.3316164 -0.028165292 0.039254453 0.17898111
-0.56057656 0.6097986 -0.04452135 0.20984055 -0.22101663 -0.24743226 0.053064555 0.23111908
0.25296423 -0.53828984 0.5440845 -0.15790357 -0.5104043 -0.15392596 0.6176026 -0.25856566
-0.1511179 -0.39741772 -0.11591845 -0.38445538 -0.021727854 0.045127895 0.5605081 0.36275178
-0.40125355 0.31062394 -0.38728926 0.52878517 0.15584451 0.3621674 0.40232596 0.3254603
0.13973337 0.42740163 -0.21555033 0.2548534 -0.24471168 0.21134903 -0.51164347 -0.50119805
-0.113659725 -0.3002033 -0.42484325 -0.46901348 0.33295017 0.4668599 0.69391614 0.38849854
-0.06398601 -0.76977724 0.3742349 0.22283153 -0.33738965 0.3477537 0.5072706 -5.4213364e-05
-0.51304483 0.3771572 0.29503173 0.51606375 -0.35303703 0.26647517 -0.6176255 0.6013635
-0.16687074 0.3344254 0.25980124 0.09318018 -0.17432065 0.06763682 -0.46407464 -0.5861449
-0.26155853 0.5827177 -0.016664598 0.35811856 -0.17747243 0.3899338 0.13279848 0.46456653
-0.1270181 -0.40857688 0.045186203 -0.43446738 0.440037 -0.21238753 0.2240403 0.6277213
0.39025357 0.20619695 -0.55821174 0.46271935 0.09982356 -0.55670345 0.50699455 -0.20138009
-0.07772124 0.4558089 -0.4499056 -0.23348036 0.15459059 -0.02863731 0.010158681 -0.2067013
0.090217374 -0.1513781 -0.0168456 -0.2803161 0.4492023 0.33740973 -0.64571375 0.34748194

policy.2.weight f4 [128, 128]
00000000: 1c7a 943d ca9c d93c ed6e 0cbd 5ce3 d33c
00000010: 3086 473d 27fb 293d 6198 10bd d41b 8f3d
00000020: 4b4e 9cbb 3830 113c 78fa f3bc 8df8 2e3d
00000030: 1209 10bd b1bd 1e3d c323 2bbd 8006 86bc
00000040: 21d6 e33b d62c 7bbd c29e 62bd 8c18 77bd
00000050: 7afe 2a3d 49da 87bc 8c9e b33d 7d43 2f3d
00000060: f025 abba db3e a9bc 4f37 be3d c12d 1abd
00000070: d14d 803c d61a e039 8563 97bd cf19 b5bd
00000080: d6c5 58bc c54f 79bd d6f2 31bc 50ce f03c
00000090: c374 aaba e152 e33c a05c d6bb ecd9 ae3d
000000a0: d0d0 083d 0fbd ccbd 6aa5 8cbd 9446 b2bd
000000b0: 8c75 edbd faba 46bc e865 e9bc 9fc7 cb3b
000000c0: 0bc6 7c3b 1b95 b53c 6a9c 20bd 27a9 f63c
000000d0: 3518 86bd 21e4 c8bc 3c50 833d d2b0 593c
000000e0: 78a9 ce3d a069 2a3d b55a 583d 28bc 80bd
000000f0: 1536 133d 814f 6a3d 9df8 3a3c fef7 ae3d
00000100: 4f44 713d d9b2 53bd 7b28 5f3d 7b4e d4bc
00000110: a723 7cbd d0b4 8e3d de8f 0e3d c4cb c6bd
00000120: d051 8d3d c049 b6bd d381 873d b401 c93c
00000130: 23ee b8bc a679 e6bc c2ce 6d3d 8219 343c
00000140: d841 42bc 8b6b 443d 4ec3 a13d e285 70bd
00000150: 0c97 6d3a 6f65 7d3d 7a46 ad3c fc6b 0d3d
00000160: c665 25bd 5260 5d3c 6035 293d dc5f 8f3c
00000170: 3154 103d acc5 1a3d 6528 92bd 6fcd 2a3c
00000180: 4eda 83bd c60f e5bb 9917 1a3a d896 85bd
00000190: 14b8 96bd 5936 e4bb 0f74 e0bc 2b1e ca3d
000001a0: db95 3ebc 963c a23c e53c 00bc ffaf 33bc
000001b0: bf7a 8d3c 09ad 6d3d e65a 24bd 9a1a adbc
000001c0: 928e 6f3d 252e 173c 137f 8cbd 2920 ce3c
000001d0: 2b6e 9dba b475 afbd d30f bc3c 339d afbc
000001e0: 311f fdbc f84c 4fb8 f275 5fbd ec12 943c
000001f0: a6a6 d33b 03ad 863d 01cb 34bc 7994 2c3d
00000200: 2f98 83bc e5f6 97bd 6cf9 d4bc 1257 bcbd
00000210: 32a0 803c 1711 86bc 709a 183d 544a a2bd
00000220: 87e5 493d 1613 643c 092c c33d a268 1e3d
00000230: ae13 c93d 8979 a5bd 2d5a 7f3d 498a dc3d
00000240: a7c6 99bd 656c 25be 5500 88bc 7290 823d
00000250: aa39 663d 0111 2b3c 8574 0d3c d4d9 983b
00000260: 297b b23b fbf1 6e3d 3e0f 633c 8d66 e9bc
00000270: 79e8 42bb 8cab 353b 96fa 0abc d0f6 c33d
00000280: 7861 29bd c86c 79bd 8820 4f3d bc75 56bd
00000290: b57b 7fbc 1350 5e3c bea2 89bd f615 e63b
000002a0: e215 f73b 180c ffbc 5d68 cd3d eafc 0ebd
000002b0: 2446 c0bd 4796 d5bd d132 c73c fdbf ca3d
000002c0: 15d7 9dbd 6729 983c 70b4 83bd 4dc8 cabb
000002d0: 4862 033e 3af2 913d ef72 c5bd 1919 b93d
000002e0: ccc5 303c 2acb cdbb edf1 5f3d c5aa 45bd
000002f0: f68a 2ebd df85 bfbc ef79 f43c f3ce 86bd
00000300: 5efe 60bc b3f8 c5bd 6134 f7bc 159b 6fbb
00000310: 8045 b1bd ce55 a5bb 25a1 163d a0e9 15bd
00000320: 9d1c 703d e3de 413d cee4 b2bc 9ff1 073d
00000330: e773 29bc 1bd7 263d 18ed 103c 7d8f 20bd
00000340: a13c 97bd 1402 2a3d 066e 42bd 3fe8 b9bc
00000350: 3190 8f3d 4644 e3bc ff6f 28bd 073c c2bc
00000360: 9e3c c13d b76c b63c 0391 013c 081f 133d
00000370: 5159 2abd 669b 8dbd 1f58 32bd 7cfc 7abd
00000380: 32c9 c03d 843a d0bc f345 033e 4964 c23d
00000390: 6ade 703d 5e06 2dbd 51c8 f43d 2b4c bfbd
000003a0: bc8b 853d 44d0 86bc 0c0d f5bd 741d f93c
000003b0: f8c7 0fbe 1077 b6bd 901c 8abc 66c2 01bd
000003c0: 5cd4 933d 7ca1 1c3c 080a 713d fcfc 8b3c
000003d0: ecce f53b e069 b93c 0c16 30bd 30f7 15bd
000003e0: 72e4 73ba 0847 4dbe 0e62 0bbd d4df 863c
000003f0: 0a57 e9bd 9859 36bd fac0 8bbd 389e 4fbd
0.07249853 0.02656402 -0.034285475 0.02586525 0.048711956 0.041499283 -0.03530157 0.0698773
-0.0047700754 0.008861594 -0.029782519 0.042717505 -0.0351649 0.038755123 -0.041782152 -0.016360521
0.0069530164 -0.061322056 -0.055327184 -0.060326144 0.041746594 -0.016583579 0.08770475 0.04278897
-0.0013057571 -0.020659855 0.09287893 -0.03764129 0.015662106 0.00042744604 -0.07392029 -0.08842813
-0.0132307615 -0.06086709 -0.010861119 0.029395252 -0.0013004768 0.02774948 -0.0065418035 0.08537659
0.033402264 -0.099969976 -0.06867488 -0.08704868 -0.11594686 -0.01212954 -0.028490975 0.006218865
0.0038570191 0.022165826 -0.039211668 0.030109955 -0.06547586 -0.024522843 0.06411788 0.013286786
0.10090917 0.041604638 0.05282088 -0.06285888 0.03594025 0.057204727 0.011411813 0.085433945
0.058903035 -0.051684234 0.054481965 -0.025916329 -0.06155744 0.06968081 0.03480517 -0.09706834
0.0690037 -0.089007854 0.06616559 0.024536945 -0.02257449 -0.028134178 0.058058508 0.01099241
-0.011856519 0.047954123 0.078985795 -0.05872143 0.000906334 0.061864313 0.02115177 0.03452681
-0.04038026 0.013511734 0.041310668 0.017501764 0.03523654 0.03778617 -0.07136611 0.010424956
-0.06438123 -0.0069904057 0.000587815 -0.06522912 -0.07359329 -0.0069644866 -0.027399091 0.09869035
-0.011632408 0.01980428 -0.007827018 -0.010967254 0.017270444 0.058026347 -0.04012575 -0.021130849
0.058485575 0.00922731 -0.06860175 0.02516182 -0.0012010982 -0.08567372 0.022956764 -0.021437263
-0.030898662 -4.942433e-05 -0.05455584 0.018075429 0.006459075 0.06575968 -0.011034728 0.042133782
-0.016063778 -0.07420138 -0.02599784 -0.09196295 0.015701387 -0.016365571 0.037256658 -0.07924333
0.04929116 0.013920566 0.095298834 0.038674004 0.09818207 -0.080798216 0.062341858 0.10768563
-0.07508593 -0.1615463 -0.01660172 0.06375207 0.056207336 0.010441066 0.008633737 0.004664639
0.0054468107 0.05833624 0.0138586145 -0.028491283 -0.0029740615 0.0027720658 -0.008482596 0.0956856
-0.04135272 -0.060894758 0.050568134 -0.052358374 -0.015593459 0.013568896 -0.06720494 0.007021661
0.0075404504 -0.031133696 0.10029671 -0.034909166 -0.09388378 -0.10429054 0.024316223 0.098999
-0.07707039 0.01857443 -0.064309 -0.0061884285 0.1283046 0.07126279 -0.096410625 0.0903799
0.010789346 -0.0062803226 0.054674078 -0.04825856 -0.042612992 -0.023379264 0.029843299 -0.06582441
-0.013732521 -0.09666576 -0.030176343 -0.0036560942 -0.08655834 -0.005045629 0.036774773 -0.036599755
0.058621038 0.047331702 -0.021837618 0.033189412 -0.010342575 0.040732484 0.00884559 -0.03919934
-0.07384611 0.041505888 -0.047468208 -0.022693751 0.07009924 -0.027742516 -0.041122433 -0.023710264
0.0943539 0.022268636 0.007908109 0.035918266 -0.041589085 -0.069144055 -0.04354107 -0.061275944
0.09413375 -0.025418527 0.12819652 0.09491784 0.05880586 -0.0422424 0.1195227 -0.093407
0.06520793 -0.01645673 -0.11965379 0.030409552 -0.14041126 -0.08909428 -0.016859323 -0.031679533
0.07218239 0.009559985 0.058847457 0.017088406 0.0075014737 0.022633493 -0.042989776 -0.03661269
-0.00093037554 -0.20046628 -0.03402906 0.016464151 -0.113935545 -0.044519037 -0.06823917 -0.050688

policy.2.bias f4 [128]
00000000: fbd2 8bbd 2f3b c33c 14ca b83c f603 13bc
00000010: 3930 22bd cc5c 94bb b3bc 48be 12e2 3c3d
00000020: effb d13b 7ff5 a4bc 698a 8abe 3546 eabc
00000030: e665 e43e e280 3dbd 10a2 6ebc e6db e23d
00000040: 8d2e fbbc 8d4a dc3d 97f8 87bd 0168 8fbe
00000050: fc29 843e 2f3b c53e 6406 85be ae08 9f3d
00000060: 5bc5 31bc b714 37bd 532c 5dbc b576 00be
00000070: 045b d2be c74b 303d 6931 2f3e a6af e2bb
00000080: 5df7 19be 7583 0e3d 0ee6 d63a 1c36 15bd
00000090: cbac 43be c1e1 d13c 2e18 123c 3e3d cebe
000000a0: 546a 19bc 3ba9 9dbd 9e2a a9bd 63a5 89bc
000000b0: 2ef7 c03d c4de 133e 7bd0 d63d befa 58bd
000000c0: 4bfe c7bd 61b0 1b3c 47a8 d33b 8088 80bc
000000d0: 4f61 8b3d 1565 36be 120f 2cbe e841 4e3d
000000e0: 024c a2bd c675 e1bd 3c75 5e3d bf71 933e
000000f0: 923d 10bc efd8 52ba f5de 443d 2281 12be
00000100: 575d 87bb 2107 fcbc e50c ebbc e056 ce3c
00000110: 2c89 16bd 98bf 2f3d b2e5 c03b a35a 2bbe
00000120: c16e f7bd 0da6 653d 8c6e 9b3e 0308 02bd
00000130: b1dd 9dbe 70bc b9bd a0f7 bd3e 8868 983d
00000140: a926 3f3c 64cf 8d3d 46ac afbc 1b31 9b3c
00000150: cb7d 3a3d 56ba 7c3d b0c6 63be e231 27bd
00000160: b7a2 033d 85c0 c1bd 90f6 e93e 11aa 293d
00000170: c5bc 0ebc 1a54 ddbd 6911 683d e1c8 18bd
00000180: 52df c0bc d646 8bbc a82d 003e 3a67 553e
00000190: 153e 883c 5663 283d ee46 0dbe c72f 213e
000001a0: 2b29 b63c f6b3 193f 1103 dcbc 6013 57be
000001b0: bf65 5a3b 74c0 8b3c 5849 823b d1e0 c63c
000001c0: c2e3 8d3e f573 cb3d c88c 503d 94f4 e93c
000001d0: acd7 46bd cddc aabe c2f3 88bd 222e c43d
000001e0: 6262 81be a319 d9bc d3d0 903e 1042 00bd
000001f0: f525 50bd 7270 cd3c 0abc 62bd 2920 893e
-0.06827351 0.023831932 0.022557296 -0.008973112 -0.03959677 -0.004527664 -0.19603233 0.046114035
0.0064082067 -0.020136593 -0.27058724 -0.02859793 0.44608992 -0.04626549 -0.014565006 0.110770985
-0.030661846 0.10756407 -0.066392116 -0.28009036 0.25813282 0.38521716 -0.25981438 0.077653274
-0.010850276 -0.04469749 -0.013499337 -0.12545283 -0.41085064 0.043041017 0.17108692 -0.0069179116
-0.15035768 0.034793336 0.0016395466 -0.036428556 -0.19108884 0.025620343 0.008916898 -0.402811
-0.0093637295 -0.07698294 -0.08260082 -0.016802495 0.09422146 0.14440447 0.10488983 -0.0529735
-0.097652994 0.009502501 0.006459269 -0.015690088 0.068056695 -0.17811997 -0.16802624 0.05035582
-0.079246536 -0.110087916 0.054311022 0.2879772 -0.008803742 -0.000804319 0.04806419 -0.14307073
-0.004131 -0.030765118 -0.028692672 0.02518791 -0.03675191 0.042907327 0.005886757 -0.16733794
-0.120816715 0.05606656 0.30357778 -0.03174592 -0.308332 -0.09069145 0.37102985 0.07441813
0.011666932 0.06924322 -0.021444451 0.018944314 0.04553012 0.06170114 -0.22243762 -0.040819056
0.0321376 -0.09460548 0.45695925 0.041421954 -0.008711998 -0.10807057 0.05665723 -0.037300948
-0.023543987 -0.01700155 0.12517416 0.20840159 0.016631166 0.04111036 -0.13796589 0.15740882
0.022236427 0.60040224 -0.02685693 -0.21003485 0.0033324806 0.017059542 0.0039760284 0.024277123
0.27712828 0.099342264 0.05091551 0.028559007 -0.048545524 -0.33371583 -0.06687118 0.09579112
-0.25270373 -0.026501482 0.2828432 -0.031313002 -0.05081745 0.025078032 -0.05535511 0.2678235

policy.4.weight f4 [3, 128]
00000000: 80fa 3c3c f2e3 2fbd 0e39 333d dfda d2bc
00000010: fcd5 f7bc f9ac 1f3d 5be6 f9bd 0be6 6cbd
00000020: d3a7 583c 58b1 723c 039b 40be f057 363c
00000030: 1399 37be f861 16bd 37ff 3bbb b960 20be
00000040: e0e2 07bc 069a 79be bc92 03bd c432 c7bc
00000050: 7359 adbe 8d06 5a3d 3e8b 39be 3f44 623e
00000060: b123 d83c 1ba9 12be 5406 cbbb 79ae d5bd
00000070: e3ae 14bc 416f 95bd 55a3 2ebd dd16 29bd
00000080: 08c7 a63e ee51 86bd 39e0 17bd b3aa 8a3d
00000090: f743 f53d 0ea6 8b3b ed36 6dbc 472b 10bf
000000a0: d51b 99bc 2646 d8be 95db 0cbd efe1 c3bc
000000b0: e41b 063e 6cd3 42bc 479e c03e 6c38 61bb
000000c0: f082 8c3d 958f a13c 1cc0 c43b fdbc 0e3d
000000d0: 944d cb3d 3c9d 163e fc87 b13e 79f6 08bd
000000e0: 1df2 89bc f989 d5bd 6b94 5abd e2f5 7abe
000000f0: 6fc2 bb3c d81c 923c ec4f 0cbe 7fc9 cc3e
00000100: 78d4 f7bc 1911 65bd 38fe 013d 0855 b13c
00000110: f770 86be 92af a3bb 690b 8f3d cc22 903e
00000120: 4f33 d9be 6092 7bbc d4e2 aebe 4d42 3b3c
00000130: 9a06 a73e 60de 58bc 0457 b43e 68da e83e
00000140: 0565 0a3d 37b1 1bbd 46b0 53bc 3e47 0b3d
00000150: 3559 bb3c 77c8 063d 78c0 88be 527b 95bc
00000160: 73b3 e5bc 5eb6 0fbf 6362 3537 a309 10bd
00000170: 2712 26bd 9e05 19be be38 fb3c bdce 53bd
00000180: 04bd f53c f8cc a4bd 2312 cabc b7ac 0b3f
00000190: 86f9 babc 6e26 0dbd 18c8 003e a7cc 103f
000001a0: 573c db3c 4f26 d6be 928d 2e3c ff73 733e
000001b0: 002d 83bb 86bb 51bd 57d9 e03a 8d08 b7bb
000001c0: 0b94 f23e 8b59 61be 88dd 913e 4f03 6cbd
000001d0: 6490 623d 4695 c43e 00f6 d33c cd1f cc3a
000001e0: 3cd2 803e 6701 6f3b a1fd c6be 6335 da3c
000001f0: 09c3 933d a0da b4bc 922e 083c d832 adbc
00000200: b05e 823b 0df4 85bd bdef c73c 48e0 ffbb
00000210: 1536 6ebc 400f 283d d334 2c3f 600a 68bd
00000220: 4701 a33c ef7e fa3c 4ec0 cc3e abcf 073c
00000230: 6f2e 8cbe 4ec7 1fbd 0416 80ba 82f2 dcbd
00000240: 996e ffbb 5dc9 b4be 54d2 aabc 9b4d 9b3e
00000250: a3de d93d f2e8 4c3e 61f6 0b3f aa91 483e
00000260: 4f43 223d 6add 813e 9947 3abb 0818 6f3e
00000270: 85b6 2abf 18f7 9dbd acec 9ebe a76d 25bd
00000280: 96b7 b3be 001b 86bd cc0d 36bc aad3 723d
00000290: 382f 65be 5464 af3b 8b94 5fbc 84e6 1c3f
000002a0: 5b58 2ebc 922c ad3e cf4b 05bd 530b a1bb
000002b0: 4a64 a3be 944f 8f3c ec28 f6be 9130 333a
000002c0: 2b0e 973d 13ae e63b 84ab dc3b e424 123d
000002d0: dd3c c53d a1f3 cebe 4b8f dcbc 9165 a4bc
000002e0: 5675 13bc 8849 b43e bb80 d5bc 591a 12be
000002f0: be6a d73c 6533 893c 4093 e1be 2ceb bcbe
00000300: 79c5 dabc d4c2 3ebd 43f6 dc3b 40c4 d33c
00000310: 88b1 163f c470 1d3c 7276 13bf 0b89 b5be
00000320: 7a5b 9a3f e970 02bd 2f45 a53f a9b2 0b3c
00000330: cca8 dcbe 072e 8dbc 1cbb 19bf fa4c 4fbe
00000340: bde8 7d3d 70be 25bd 1757 8abc 408c debb
00000350: 8eb8 ca3c 2daa 29bb 6563 0b3f d351 d3bc
00000360: efe1 18bd 26de 9a3f debd b03e bcec 43bd
00000370: ce05 22bd b1ca 273f 839d f4bb 09d9 b7bc
00000380: 5a23 333c ce10 35be e7ca b4bd af08 20bf
00000390: 5f8e fcbb 6767 2bbd 6f8a babe ef51 ebbe
000003a0: 2d17 a83c 499b a63f ac74 a33b 8f90 2ebe
000003b0: 6bab 9b3c 6ef4 12bd 479d 5e3c a7fc 333b
000003c0: a188 58be 6b20 d9be d453 213e 8cac 6fbd
000003d0: a965 773d 9521 28bf 0a2e 553d 554a 0f3b
000003e0: 30b4 d8be 0e2b 993c b373 c83e f294 3a3d
000003f0: 68c9 003e 970e b7bc 4fa5 5dbc a7bc d3be
0.011534333 -0.042941995 0.043755583 -0.025739131 -0.030253403 0.03898332 -0.1220214 -0.057836574
0.013223606 0.01481279 -0.18809132 0.011129364 -0.17929487 -0.036714524 -0.0028686055 -0.15661897
-0.008293837 -0.24375162 -0.03212236 -0.0243162 -0.33857307 0.053228904 -0.18119523 0.22096346
0.026384206 -0.14322321 -0.0061958227 -0.10433669 -0.009074899 -0.072966106 -0.042636234 -0.04128157
0.32573724 -0.065585956 -0.03707907 0.067708395 0.11975854 0.0042617386 -0.014478427 -0.56316036
-0.01869003 -0.4224102 -0.034389097 -0.023911444 0.13096577 -0.011891227 0.37620756 -0.0034365905
0.06860912 0.019721786 0.0060043465 0.034848202 0.09926906 0.14708418 0.3467406 -0.03343818
-0.016839081 -0.10426707 -0.0533642 -0.2450786 0.022919862 0.01783602 -0.13702363 0.3999748
-0.03025268 -0.05592451 0.031736583 0.021646991 -0.2625806 -0.004995295 0.06984598 0.28151548
-0.42421958 -0.015354723 -0.3415743 0.011429382 0.32622224 -0.013236612 0.35222638 0.4547913
0.033787746 -0.038010802 -0.012920445 0.03400349 0.022869686 0.032906022 -0.26709342 -0.01824728
-0.02803967 -0.56137645 1.0811348e-05 -0.03516544 -0.040544655 -0.14943549 0.030666705 -0.051710833
0.029997356 -0.08046907 -0.024666851 0.54560417 -0.02282406 -0.034460478 0.1257633 0.56562275
0.02676217 -0.41826102 0.01065387 0.23774718 -0.004003167 -0.051204227 0.0017154616 -0.005585736
0.47378573 -0.22006814 0.28489327 -0.057620343 0.055313483 0.38395137 0.025874138 0.0015573442
0.25160396 0.0036469342 -0.38865378 0.026636785 0.072149344 -0.022076905 0.0083118845 -0.021142408
0.003978573 -0.065406896 0.024406308 -0.007808719 -0.014539261 0.04103017 0.67268103 -0.05665052
0.01989807 0.030578105 0.39990467 0.008289258 -0.27379176 -0.03900843 -0.0009772186 -0.10788442
-0.0077951667 -0.35309878 -0.020852245 0.30332646 0.10638168 0.20010737 0.5467282 0.19586816
0.03961497 0.25364238 -0.0028424023 0.23349011 -0.6668475 -0.07713145 -0.3103994 -0.040387776
-0.35101002 -0.065481186 -0.011111688 0.05928389 -0.22381294 0.005352536 -0.013646255 0.6128924
-0.010641183 0.33823067 -0.032543 -0.00491468 -0.31912452 0.017494 -0.48078096 0.0006835545
0.07375749 0.007039794 0.0067343134 0.035679713 0.096307494 -0.4042025 -0.026923796 -0.020067962
-0.009000143 0.3521235 -0.02606236 -0.14267863 0.026296016 0.01674814 -0.44057655 -0.36898172
-0.02670549 -0.04657252 0.006743224 0.025850415 0.5886464 0.009609405 -0.5760261 -0.35456118
1.2059166 -0.03184596 1.2911738 0.008526483 -0.43097532 -0.017233862 -0.6005113 -0.20244208
0.061989535 -0.04046482 -0.01688723 -0.0067916214 0.024746206 -0.0025888786 0.5444854 -0.025795853
-0.037324842 1.2099044 0.34519857 -0.04783319 -0.039556317 0.6554366 -0.007465066 -0.022442358
0.010933721 -0.17682192 -0.08827763 -0.6251325 -0.0077074016 -0.04184666 -0.3643374 -0.45960948
0.020518864 1.3016139 0.0049882736 -0.17047332 0.019002637 -0.035877638 0.0135873025 0.0027463825
-0.2114587 -0.42407545 0.15754634 -0.058514163 0.060399685 -0.6567624 0.05204586 0.0021864374
-0.42324972 0.018697288 0.39150771 0.0455522 0.1257683 -0.022345824 -0.013528182 -0.41354868

policy.4.bias f4 [3]
00000000: 2e75 19be abcb cfbe f620 f43e
-0.14986107 -0.40585074 0.47681397

value.0.weight f4 [128, 8]
00000000: 63b4 df3e 67b4 933a bab5 393f 305f 06bc
00000010: c94c 5fbd 3877 afbe 4048 d4be 33e3 4a3f
00000020: 68f1 913e 6a12 9fbe 5a8a 33bf 2a06 09bd
00000030: a38a 0c3d 0d0f e0be 462a 6a3e 6490 90bd
00000040: 2cda 9f3e 0de6 81be 11fa 63bf c5d8 dfbe
00000050: d547 643c 068b f4bb 801e c0bc 70a3 e83c
00000060: 7dbc a63e 35d6 b93d 5e9e eabe 461e 56be
00000070: 9fbd babe 2bff 92be b09e e83d 9f9b f83e
00000080: cf07 e9be 0369 1e3f 12dc 283f 230a 833e
00000090: 08b3 2b3d 6ae2 383e 601f 123f 273b de3e
000000a0: 796e 3e3e 1f97 3d3f d35e d5be 2ea2 75bd
000000b0: 59ec b83d acbc 923e 33bf c53e 2558 11bd
000000c0: 10e6 3ebd 70f1 ec3d 0dc9 2f3f ac89 3dbe
000000d0: 860c 82bd bf60 74bd e156 e03e c296 1c3d
000000e0: dabb b4be 9eb5 933d 012d 4a3f 7332 27bd
000000f0: b5bd 533e 9d15 ca3e 4128 28bf 4745 2cbe
00000100: eabb 06bf 2817 87be 88b1 d03e 6fb3 57bd
00000110: 1a33 b63d 6d25 a5be 65d0 df3e a8fd f9bd
00000120: ae1b d83e 9fa9 fabc c7e2 1d3f e647 d43d
00000130: 71ba e23d cec6 72be ecf4 593d 35a5 543f
00000140: c892 0dbf 0b6f aa3e f0a0 223f 17db ae3d
00000150: 1823 d0be bb38 433e b56c 593e ea0d 3c3e
00000160: 81af 6dbe 235e 5d3f e548 0abf 29c8 fa3c
00000170: 8536 003e faf0 80bd e171 36be bdc2 563d
00000180: 69b9 df3e 8f9e 0d3f a497 22bf 83f6 1f3e
00000190: 5507 923e 3926 9a3d 5aed e43e bfca e9bc
000001a0: 34d3 e5bd 6ef8 8f3e 263e 7b3f ae87 0b3e
000001b0: 7fe0 44bd 2c14 083d 0994 033f cae6 a93c
000001c0: 4d15 233d f1b0 3d3e a1f5 32bd 09b9 12be
000001d0: 34e0 9a3e dd62 5dbe 4fbf ca3e 54a4 30bf
000001e0: 1112 2bbf dc87 54bf ce9f b13e 3e18 183f
000001f0: 356d 30be 81f5 cb3d beac fd3e fec8 873e
00000200: 8735 053f fd68 a53e 8ea4 573f d9bf 89bc
00000210: 5201 9fbe 6a46 223e 3e50 083f 6ab8 2a3e
00000220: a242 f73c 7442 653d 711a ee3e d74c 9fbd
00000230: 6fd7 3abe 4630 433f efe3 04bf 96cd 84bf
00000240: a3ec 103d 3419 cc3e 2f5c 1cbf a682 863e
00000250: 69f7 12bd e21a e3bd 38da 013f 30c6 043e
00000260: 5df6 aa3b 1637 d8be 1cb8 163f 9e5f 91be
00000270: 4614 10bf a0e3 a13e 7ffc 173f bdf5 683e
00000280: 3510 e0be 24c7 2dbf 21fb 293f 4f0a 533e
00000290: bb4c 9b3e d04b 9a3e 3f19 3dbe b7a6 783d
000002a0: c897 fc3e 78c9 403d edb8 27bf 655b 8abe
000002b0: 4ad8 76bc 75da adbd 82e5 dabe b28f 86bf
000002c0: 0810 953e 8a2f 2ebe b032 1d3d 718f 763e
000002d0: 4534 28bf 744e 373d d357 113f c00b 3c3e
000002e0: 6183 9b3e 2127 2bbf 4f3c 6d3f 1086 adbd
000002f0: 370f 08be 481a 023c 30a5 5d3e 1093 0b3e
00000300: 2f9b e53d 662b b7be f69f 7abd 185f 93be
00000310: d0f5 013f d68a 993c 5385 58bd 1ff3 2cbf
00000320: 8824 1cbf c6f5 1bbd 6906 233f 8f5e c03e
00000330: 828b 333c 011d 2a3e b1a0 00be dc75 17be
00000340: aacb 273f 33b3 093d f0b9 cb3e adfd 26be
00000350: e011 48be d687 36bd 127c f63e 93bb 773f
00000360: 83c4 7ebd 723b a43e f79a 1dbf f6c2 05be
00000370: 261c 063e 63ca b6bd bff2 9ebc 4014 393d
00000380: 8a8d 00bf b010 d0bd 8261 46bf 120f 6abe
00000390: 43fc 7bbd c0ee 0f3d 0514 423e e393 733d
000003a0: 5872 973d 3a3d e03c a3c2 37bf a38a 863e
000003b0: f113 673e dea7 233f 0e39 8abf 4d92 69be
000003c0: 6fae e1bd 3b0b e43e 53a5 32bf 4685 0dbe
000003d0: 3218 99be ece7 a83d 403c 9c3e c942 4d3d
000003e0: 5118 3e3e caf5 67be 0b68 c8be 68e5 1bbd
000003f0: 6a3c 33bd 7291 3f3b 0f14 7abc e431 903f
0.43692312 0.0011268974 0.7254292 -0.008201405 -0.054516587 -0.34270644 -0.41461372 0.7925293
0.2850449 -0.31068736 -0.7013298 -0.033453144 0.0343119 -0.43761483 0.22867689 -0.0705879
0.3122114 -0.25370827 -0.89053446 -0.4372007 0.013933142 -0.007462862 -0.023452044 0.028398246
0.3256568 0.0907406 -0.4582395 -0.20909986 -0.36472794 -0.28710303 0.11358392 0.4855623
-0.4551377 0.61878985 0.659608 0.2559367 0.041918784 0.1805512 0.57079124 0.43404505
0.1859683 0.7405872 -0.41673908 -0.05996912 0.09029455 0.2865957 0.38622436 -0.03548445
-0.046606123 0.11569488 0.68666154 -0.18509549 -0.06350045 -0.059662577 0.43816283 0.03822971
-0.3529957 0.07212375 0.7897492 -0.040819596 0.20677836 0.39469615 -0.6568642 -0.16823302
-0.52630484 -0.26384854 0.40760446 -0.052661356 0.088964656 -0.32255116 0.4371368 -0.12206584
0.42208618 -0.03059846 0.6167416 0.10365276 0.11070717 -0.2370865 0.05321209 0.83064586
-0.55302095 0.33287844 0.6352682 0.08537882 -0.40651774 0.1906461 0.21232875 0.18364683
-0.2321148 0.86471766 -0.5401748 0.030613022 0.12520798 -0.06295963 -0.17816879 0.05243181
0.43696144 0.55320066 -0.63512635 0.1562138 0.2852122 0.07526822 0.44712335 -0.02853906
-0.112219244 0.28119224 0.98141706 0.13625976 -0.04806566 0.033222362 0.5139776 0.020739932
0.039815236 0.18524529 -0.04369128 -0.14328398 0.30249178 -0.21619745 0.39599082 -0.69000745
-0.6682444 -0.83019805 0.34692234 0.5941199 -0.17229159 0.099589355 0.49545854 0.26520532
0.520348 0.32306662 0.84235466 -0.016815113 -0.31055695 0.15847173 0.5324744 0.16671911
0.03018314 0.055971578 0.46504548 -0.07778328 -0.18246244 0.76245534 -0.519103 -1.037524
0.035381924 0.39862978 -0.6107816 0.26271552 -0.03588048 -0.11089112 0.507236 0.12966228
0.005217357 -0.42229527 0.5887468 -0.28393263 -0.56280935 0.31618977 0.59369653 0.22749992
-0.43762365 -0.6788199 0.6639882 0.20609401 0.30331978 0.30135965 -0.18466662 0.060705867
0.4933455 0.047067136 -0.6551655 -0.27022853 -0.015066216 -0.08488933 -0.42753226 -1.0512602
0.29113793 -0.17010322 0.038378417 0.24078156 -0.65704757 0.044752553 0.56774634 0.18363857
0.30373672 -0.6685658 0.9267015 -0.08472836 -0.13287054 0.007940836 0.21645045 0.13630319
0.112112395 -0.35775298 -0.061187707 -0.28783488 0.50765705 0.01874296 -0.052861523 -0.67558473
-0.6099324 -0.038076185 0.63681656 0.37572142 0.010958554 0.16612627 -0.12561299 -0.14791054
0.6554514 0.033618163 0.39790297 -0.16307707 -0.19538069 -0.044563137 0.48141533 0.9677059
-0.062199127 0.32076603 -0.6156458 -0.13062653 0.13096675 -0.08925321 -0.01940286 0.045185328
-0.5021597 -0.10159433 -0.77492535 -0.22857311 -0.061519872 0.0351398 0.1895295 0.059467208
0.07394856 0.027372945 -0.7178137 0.26277646 0.22566201 0.6392802 -1.0798662 -0.22809716
-0.11019599 0.44539818 -0.69783515 -0.13820371 -0.29901272 0.082473606 0.30514717 0.05011252
0.18563963 -0.22652355 -0.39141878 -0.038060576 -0.043758787 0.002923098 -0.015263571 1.1265225

value.0.bias f4 [128]
00000000: 5ef8 47bf acd4 863e 3672 dcbe 33c7 cf3e
00000010: e2fe 923e 8df9 383f 8dc6 673f ab69 19be
00000020: 671b 93bd 9c1b 25bf ab88 89be df0e 69bf
00000030: 894a 0b3f c458 d53d 6120 a2be 21e0 e9bd
00000040: 847d 003f 75fd fbbe c5e0 093f 17e3 723e
00000050: 6276 15bf eea1 0ebd bf10 a63e 2397 c0be
00000060: d7bb 29bf a3d0 afbc 2043 72be 1daf 0dbf
00000070: b8b9 403e 22d1 7b3e 1b14 ebbe ba2b 46bf
00000080: 4fb3 583f ce87 56bf 5465 b2bc b063 8b3e
00000090: 987d 3d3e cefc abbe bbad 8abe a261 04bf
000000a0: 5855 e33e e2ca 893e 592f 35be e8ec c0be
000000b0: 7012 343f b90e 5cbf 26fc 003f 47a0 a3be
000000c0: b01d 65bf c6fe 543f 35db e03e efc0 d63d
000000d0: 6456 06bf 30af 85bf ce72 063f 2735 b4be
000000e0: 7498 eb3e caad 2f3f e928 d4be 1678 54bf
000000f0: c160 2b3f 897b 1cbf ff2a e0be 4ca4 5abf
00000100: bd94 3f3f e0a0 513f ea8e 32bf aa1b 30bf
00000110: 99c6 2e3f 76c8 093f 7cee 2e3f 3edb 7fbf
00000120: 5ebd 673f d0df 2bbf a0a6 debe b5c3 a9be
00000130: e38c 923e d721 1c3f 0b41 03be 07da 20bf
00000140: e13c 7b3e 5c71 59bf 25c2 3abf c7e6 583e
00000150: 2aec 503f 0e48 21bf 3acf c13e a3e8 26bf
00000160: 68fe 2e3d ed0c aa3e caa4 f7bd eb43 73bf
00000170: 7ccc 2ebf 0471 c5be 4bb0 053f bb40 523f
00000180: 591f 8b3e 0e48 3bbf d106 303d 9543 45bf
00000190: 4d23 dabe 0725 71bf af80 77bf 2185 aa3c
000001a0: 04f6 963f bf52 1d3e 4047 0fbf 6676 0c3f
000001b0: 49d9 823e 12b9 41bf 604b 63be d9f8 29be
000001c0: f47c 16bf 4555 1cbf a563 b8be 52ce f3be
000001d0: 6e25 22bf d79e 51be f707 b73c 1170 193f
000001e0: c6c1 10bf 732e 3b3f 89a4 513f 5feb 32bf
000001f0: 6af9 fe3e b5be 543f 0b99 4dbf 82c0 5f3f
-0.78113353 0.2633413 -0.43055886 0.40581664 0.28710085 0.72255784 0.9053734 -0.14981715
-0.07182961 -0.64495254 -0.26862082 -0.91038316 0.54410607 0.10417321 -0.31665328 -0.11419702
0.5019152 -0.4921681 0.53858596 0.2371944 -0.5838376 -0.034822397 0.3243465 -0.37615308
-0.66302246 -0.02146179 -0.23658419 -0.55345327 0.18820846 0.24591497 -0.45913777 -0.7741047
0.84648603 -0.8380097 -0.021776833 0.27224493 0.18504941 -0.33591312 -0.2708567 -0.51711476
0.4440105 0.269126 -0.17693843 -0.37680745 0.70340633 -0.85959965 0.5038475 -0.3195822
-0.89498425 0.83201253 0.43917242 0.10486018 -0.5247557 -1.0444088 0.5251893 -0.35196802
0.4601475 0.68624556 -0.41437462 -0.82995737 0.6694451 -0.61126 -0.43782803 -0.8540695
0.7483633 0.818861 -0.6974932 -0.6879221 0.68271786 0.53821504 0.6833265 -0.9994391
0.90523326 -0.67138386 -0.434865 -0.33157125 0.28623113 0.60989136 -0.1281778 -0.62832683
0.24534942 -0.849386 -0.7295249 0.21181785 0.8161036 -0.6300057 0.37853414 -0.65198725
0.04272309 0.33212987 -0.12091978 -0.9502551 -0.6828077 -0.38562787 0.52222127 0.8213002
0.27172354 -0.7315682 0.04297525 -0.77056247 -0.42605057 -0.94197124 -0.9668073 0.020815434
1.1793828 0.15363596 -0.55968094 0.5486816 0.255564 -0.7567302 -0.22196722 -0.16598834
-0.58784413 -0.6106761 -0.36013523 -0.47618347 -0.63338363 -0.20470749 0.022342665 0.59936625
-0.56545675 0.7311775 0.81891686 -0.698904 0.49799663 0.83103496 -0.8031165 0.8740312

value.2.weight f4 [128, 128]
00000000: 4c40 d2bd 7ba0 433d 73e1 03bd dca6 f4bd
00000010: daa6 1e3d f0fe d4bb 8714 fd3d 2704 d1bd
00000020: be5d 0e3e 6615 2ebe 20ee e83d 7633 4abe
00000030: f8b7 babc 0734 ac3a 3836 963c d7b7 0e3d
00000040: 0aca ee3d 59c5 4bbe e3d4 ef3c 21f8 bb3d
00000050: 57bd eebc 2606 09bd a924 c2bb 79dc 313d
00000060: 860c 1b3e 1a19 debb e0d1 b4bd e52f c2bd
00000070: 8884 d33d 9ff2 12bd 3047 20bd 159f 2bbe
00000080: d590 493d c880 cbbc 5f14 a33d e839 7e3d
00000090: 6b79 17be b2e6 a3bd a7dd 51bd 22dc 743c
000000a0: 885d 18bc 49fe aa3d a501 cd3d 457a a73d
000000b0: c86b ddbc a2ab 9dbb fc1f 36bd e7b2 3f3d
000000c0: 6237 6cbd 66db b93d 7a5a abbd 818f 95bd
000000d0: d101 913b f2ba 06bc d74c bc3d 4618 cfbd
000000e0: 7058 313d f307 b53c e091 243e 8199 aabd
000000f0: 5e1c 843d 23a6 41bd 4b09 d0bd 7d43 72bd
00000100: f9b5 0f3d a6b2 f6bc 7bd8 8a3d e5bc 843d
00000110: b820 f4bd 6458 d33d e542 a1bd 2bc0 f33c
00000120: b4e0 76bc 173a 5abd ef61 133d a9d0 403c
00000130: 1c47 993d 161f 1f3d 52fa c03d 4db8 6a3d
00000140: 8bfc 0e3e bc9e a0bd 0432 c33d 731f 253d
00000150: f3f7 22bd da72 34bd df3e 5dbd 433a 5ebd
00000160: 77d1 36bb ff17 e2bc 8ac1 a33c 7ca7 093d
00000170: 3823 20be 3ae3 403d b657 d8bd 79ab d73d
00000180: a858 1bbd 6210 e83a bb0c 6c3d c9f9 2ebd
00000190: 34c6 d0bd 63a5 1b3d c3b0 29bd 3813 1e3d
000001a0: d60f 293d eabf ae3d ba90 893c 6385 83bd
000001b0: 6566 1e3e a45f f1bb 43f5 5e3d 7f21 6abd
000001c0: 762f ca3d 7e8f 37bd 7552 e8bc da85 8e3d
000001d0: 8638 1bbe a184 1cbd f558 53bd d3ae babd
000001e0: 950b 88bd 12d8 08bd 8fee ab3d d211 b9bd
000001f0: 1e61 31bc 4e4b ab3c a7f0 b0bd 2bf9 6b3d
00000200: 6d28 1b3c 204c 9ebe 3f76 bbbe e545 bebe
00000210: 2285 de3e ab10 ed3d 8514 eb3c bf3a b7bc
00000220: d654 c83e e0b2 c33d 73a8 c53e efc0 b83d
00000230: 7730 c4bd c712 1dbe 73a8 b9bd a377 8e3e
00000240: 240b c9bc e2c4 ecbe b333 b73d b2d9 963e
00000250: 2bdd 83bd 4754 18bf 565c c33d 0c82 6b3e
00000260: 877d 6abd 9939 5c3e f7fb f03d e9c2 17be
00000270: bafc ca3d c12c b2bc 22ed 653e c385 f63d
00000280: ec6a 2bbd a264 0c3e 07a2 2fbf 8598 69bc
00000290: 3fb6 88be 454c 0b3e e98d 8a3d f7c1 d3bd
000002a0: 8d4c 02bf 55bb fcbe 190f 313f 2a60 4bbc
000002b0: 1257 cc3d 09c8 59bd e9ec e5be 8a48 0c3e
000002c0: 265f 133e 5cda 80be 20f7 43bd 6ae7 94be
000002d0: 7569 843e 9866 e8bd 9dc5 143e 25e2 49bb
000002e0: d571 923d 1338 bbbd 04a4 a5bc 5335 47be
000002f0: f213 37be 192e d63c 2f41 fabe 2e0b fabd
00000300: a358 413e f8f9 b4bd bf3c d3bc 2901 0a3d
00000310: 437a 25bc 59c7 463e 5db7 f3bd 3f95 6fbe
00000320: 7fbe 053e c82d 83be 2b10 c9be 8fa8 963e
00000330: 5123 5ebd ba2c 203e 5e3e 903e 1992 743e
00000340: 3bbc 8abe 26d7 c33b d54b 51be 94dc 55be
00000350: d8c3 80be c859 9fbe 1904 09bd afcf 8fbd
00000360: 1ddc 9e3e 3c9c afbe 1bdd 033e cede e6bd
00000370: 72e9 7d3e 58e6 943e 2b04 543c 8882 6d3d
00000380: 151d 853e fd65 09be 2114 83bd 9254 063e
00000390: 7f9b 27be 8e8b 32be 3621 b83e 8cd8 353e
000003a0: 16f1 833e 246a 1dbf aa91 abbe afeb 333e
000003b0: bd81 9cbd 0a34 3cbe 0f4f 0a3d 8b4b 8fbc
000003c0: 4647 a93b b72e bfbb 3f2d c93e 6f5a a83e
000003d0: f2bd 293e d742 8ebd 7899 15be f0bf 643e
000003e0: 99c7 95be 1537 28be a5f7 15be 3e18 f6bd
000003f0: 534a 3a3c 01ac 8c3d c434 213d ad33 02be
-0.1026617 0.047760468 -0.032197427 -0.119458884 0.03873334 -0.0065001175 0.12357431 -0.1020587
0.13902947 -0.1700035 0.11373544 -0.19746193 -0.022792801 0.0013138064 0.0183364 0.034843292
0.1165963 -0.19899501 0.029276317 0.09178186 -0.029143019 -0.03345313 -0.0059247804 0.04342315
0.15141496 -0.0067778947 -0.08829093 -0.094817914 0.10328013 -0.035875913 -0.03913039 -0.16759904
0.04921039 -0.024841681 0.0796287 0.062066942 -0.14792411 -0.08002986 -0.051236775 0.014945062
-0.009299643 0.08349282 0.10010079 0.08177618 -0.027028933 -0.00481172 -0.044464096 0.046801474
-0.057670005 0.0907505 -0.083668664 -0.07302762 0.0044252654 -0.008223282 0.091943435 -0.10112052
0.04329723 0.022098517 0.16071272 -0.0833006 0.06450723 -0.04727758 -0.101580225 -0.059146393
0.035085652 -0.030114483 0.067795716 0.06481341 -0.11920303 0.103195935 -0.07874087 0.029754719
-0.015068222 -0.053278055 0.03598207 0.011768498 0.07484266 0.038848005 0.09422745 0.05730467
0.13963525 -0.07842776 0.09531024 0.040313195 -0.039787244 -0.044054843 -0.054015037 -0.05425478
-0.0027895847 -0.027599333 0.019989748 0.03360699 -0.15638435 0.0470917 -0.105636045 0.10530753
-0.037926346 0.0017705078 0.05762933 -0.042718682 -0.10194054 0.037999522 -0.04142834 0.038592547
0.041274868 0.085326985 0.016792644 -0.06421926 0.15468748 -0.0073661376 0.05443312 -0.05716085
0.09872334 -0.04481458 -0.028359631 0.06959124 -0.1515828 -0.038212422 -0.051598508 -0.09115376
-0.06642834 -0.033409186 0.08395111 -0.09036602 -0.010826377 0.020909932 -0.08639651 0.057610672
0.0094700875 -0.30917454 -0.36613652 -0.371627 0.43460947 0.11575445 0.028696308 -0.02236688
0.39127225 0.09555602 0.3860508 0.09021174 -0.095795564 -0.15339194 -0.09065332 0.2782565
-0.024541445 -0.4624396 0.08945408 0.29462963 -0.06438669 -0.595036 0.09539096 0.22998828
-0.05724862 0.21506347 0.117668085 -0.14820446 0.09911485 -0.021749856 0.2245374 0.12037232
-0.041850016 0.13710263 -0.6860661 -0.014257555 -0.26701543 0.13603313 0.067653485 -0.1033973
-0.5089806 -0.49361673 0.6916366 -0.012413064 0.09977545 -0.053169284 -0.4490731 0.13699546
0.14391765 -0.25166595 -0.0478431 -0.29082805 0.25861707 -0.11347693 0.14528508 -0.0030804959
0.07150618 -0.09141555 -0.02021981 -0.19453935 -0.17878702 0.026145028 -0.48877856 -0.122091636
0.18881468 -0.0883674 -0.025785802 0.033692513 -0.01009995 0.19411983 -0.11900208 -0.23396777
0.1306095 -0.25620866 -0.39270148 0.29425475 -0.0542329 0.15642062 0.28172582 0.23883857
-0.27096733 0.0059765754 -0.20439084 -0.20884925 -0.25149417 -0.31123185 -0.033451173 -0.070220344
0.31027308 -0.34298885 0.12877314 -0.11272965 0.24796084 0.29081988 0.012940447 0.057985812
0.2599875 -0.13417812 -0.06400324 0.13118199 -0.16367911 -0.17436048 0.35962838 0.17758387
0.2576987 -0.6149008 -0.3350957 0.17570375 -0.07641933 -0.18379226 0.033766802 -0.017492076
0.005165967 -0.0058344263 0.39292333 0.32881495 0.16576365 -0.069463424 -0.14609325 0.22338843
-0.29253843 -0.16427262 -0.1464525 -0.120163426 0.011370259 0.06868745 0.03935696 -0.12715025

value.2.bias f4 [128]
00000000: f14c 803d 0592 80bd 390b b23d a3a0 f3bb
00000010: b109 bb3a a615 5dbe 8cc1 ecbd ecdb eabb
00000020: 546e c63e 7884 84be fb53 55bd b041 103f
00000030: d2be bc3c 3559 c13e c9b2 6f3e f207 a03d
00000040: ce62 d73d 0d61 be3c aa83 7b3c d7c1 b43d
00000050: fd8a c93c 1f5f 363d 75dd 943e 31ae 96be
00000060: 7b04 eabd 0994 6dbd 5f86 023e 7d8a f73e
00000070: 4978 7bbd 1b6f 5d3e 23b9 b93c 6d0a 0fbd
00000080: 99a4 e3bd 03a7 c23b c22f 47bd 3c77 c73c
00000090: 8c47 103b 49b4 c8bd b3d0 5a3e 9285 823e
000000a0: e967 1d3c 316c 9d3e ea2a 1f3f 6e74 2ebf
000000b0: b5a7 7b3e ed44 4d3d b8c5 92bd e324 8f3d
000000c0: 7770 1c3d f5cf 05ba c2a1 633e 7e0e 2b3f
000000d0: 2b0b af3c 87e4 8abd 3da3 b3be 4ab5 82bc
000000e0: 024f b33c 1f38 a6bc 14ad 56bd d229 c4bd
000000f0: c7cc cebc 5472 0bbe f5ce a33e a2c5 d03d
00000100: 8e06 e6bb 1147 143d f261 d43e 5f64 14bd
00000110: a158 283f 2ec5 8cbe cb61 7c3e 2db1 10be
00000120: e4fc ddbe 9176 793e ecd2 6bbd e4b1 10be
00000130: ed10 2c3d 31d7 873c 1a24 f7bb fd86 0fbe
00000140: 8a33 d13c 3bc8 573e c5b0 253d 8f10 fb3b
00000150: f0ee b1bd 84ed aa3d 8118 2bbd f518 9ebc
00000160: 6774 81bd 89fa 073b aa99 843d 1d17 9dbd
00000170: dd07 37bc 7e08 0bbd c9ff a2bd c933 45bd
00000180: b6ff aabb e158 2e3d c1df 5dbe 6613 06bd
00000190: 7577 003f bcbc 1d3e 6f90 9f3e fe5a d33c
000001a0: bcaa b33d f52a 05bd 2241 9cbd 4e69 243d
000001b0: cb52 02bd e398 bbbd e3a6 d83d 980c 0ebe
000001c0: c040 64be 8e09 f53c 0013 21be be55 8cbd
000001d0: ebf1 113d fe9d 0cbe 8378 8ebe 5c79 cebd
000001e0: b6ad d03d fbab 54bd 48be 803d 329d fc3d
000001f0: bf65 63be 6fa3 71be 4281 04bd 5b5d 96be
0.062646754 -0.06277851 0.08693547 -0.007434921 0.0014269856 -0.2159029 -0.11560354 -0.00716733
0.3875605 -0.25882316 -0.052082043 0.5635023 0.023040209 0.37763372 0.23408045 0.078140154
0.105168924 0.023239637 0.015351215 0.088260345 0.024602408 0.04452431 0.29075208 -0.29429772
-0.11426636 -0.058002505 0.12746571 0.48347846 -0.06139401 0.21624415 0.022671288 -0.034922052
-0.11115379 0.0059403195 -0.04862953 0.024348848 0.0022015302 -0.09800012 0.21368675 0.2549253
0.009607294 0.30746606 0.62174857 -0.6814641 0.24575694 0.05011456 -0.07166618 0.069894575
0.038193192 -0.00051045354 0.22229674 0.6681899 0.02136763 -0.067818694 -0.35085478 -0.015955586
0.02188826 -0.020290432 -0.052411154 -0.09578289 -0.02524413 -0.13617831 0.31993833 0.101939455
-0.0070198243 0.036200587 0.41480976 -0.036228534 0.65760237 -0.27494186 0.2464668 -0.14130087
-0.43357003 0.24361636 -0.057574198 -0.1413036 0.04200833 0.016582103 -0.0075421454 -0.14016338
0.025537271 0.21072476 0.040451784 0.007661886 -0.08688152 0.08346084 -0.041771416 -0.01929901
-0.0632103 0.0020748696 0.064746216 -0.07670424 -0.011171308 -0.033943646 -0.079589434 -0.04814509
-0.0052184714 0.04256523 -0.21667387 -0.032733344 0.50182277 0.15404028 0.31164882 0.025800224
0.087727994 -0.03251167 -0.076296106 0.04013949 -0.03181724 -0.0916002 0.10578706 -0.13871992
-0.22290325 0.029911783 -0.15729904 -0.068522915 0.0356311 -0.13732144 -0.27826318 -0.10081741
0.10189383 -0.051921826 0.06286293 0.1233467 -0.22206782 -0.23597501 -0.032349832 -0.293681

value.4.weight f4 [1, 128]
00000000: 0f89 79bb 6464 e8bd 1a31 fcbd 4da9 e03b
00000010: d119 b7bd e90c 69be 7a02 ab39 6df5 e7bb
00000020: c7b6 2d3e b0ed 973e 8bed 59bc cfbf 353e
00000030: 655c 79bb 52b5 5b3e 5c57 093e e8c2 0c3e
00000040: 5c3c 67bd a360 eb3d b8d3 06bc 5ca7 d13b
00000050: f138 443e 1876 853c 1dd0 6bbe 8cbd 64be
00000060: 1043 953d 4580 6ebc 6a6b d4bb 8395 b6be
00000070: eddb 4fbe 6c23 ea3d 94e8 343a 34e7 bfba
00000080: ec77 2a3e 8ad5 0bbe 15fe 9ebb 5782 0f3c
00000090: 25c0 ab3b c670 a63e 4d2f 7d3e a43a 94be
000000a0: ef30 e8ba 5171 093e fec7 2c3f aa7e 24be
000000b0: a303 45be d26d 0b3c cadd 9fbb 6c58 bd3b
000000c0: 10dc 383c 96eb f1bb b19d fc3e e9a4 133e
000000d0: 51c8 ac3c edbc 313f 8599 773e 152e 09bc
000000e0: 3401 333c 0ec6 153b 0b08 ccbb 553d 813e
000000f0: 7d1e 6d3b 2142 bf3d 299d f33e 5aa5 2d3e
00000100: 50a6 843b fcd2 eeba 0545 ea3e 2e84 c3bb
00000110: ad26 ac3f 7286 953e dc50 883e fb62 aa3c
00000120: da5a b2be 8efa 4c3e 9c58 01ba 7131 70bc
00000130: 7a67 2dbc 4f08 f639 eb68 4cba b257 e0bd
00000140: 5a24 c1bd a3c9 0bbe 9f9b ef3e dddb 95bc
00000150: c0e0 7d3b a60b e03d f91c 623c 1d2e f6bd
00000160: f7b6 4d3c 9853 d43a 4b84 2f3b b480 243a
00000170: aa44 14bb 4ba2 5abc 7030 c43b d1d1 abbd
00000180: 9012 81bb 5281 ef3b 7cb1 513e 57a0 413b
00000190: 73de 7f3e 6277 82bd 6e4a 6b3d 5381 e33b
000001a0: c15c 4abb 8380 91bc 7a68 433c 710c 9bbb
000001b0: 2dce 8b3b 529b d8bb 1641 283e cf68 1c3e
000001c0: 1eaa e4bd 0213 4dbe 1c4b 6b3e eeb3 42bf
000001d0: 6de4 e2bb bc04 893d 4386 93bd 51a5 54be
000001e0: 97f1 a8bd 8c34 fd3d 6048 943d 3311 0b3e
000001f0: d26e 10be db10 06be 1bf2 2ebe c956 6e3f
-0.0038076078 -0.11347273 -0.12314053 0.0068561197 -0.08940471 -0.22758831 0.00032617507 -0.0070788176
0.16964255 0.2967353 -0.013301264 0.1774895 -0.0038049456 0.21455887 0.13412231 0.13746226
-0.056454048 0.11493041 -0.008229189 0.0063981246 0.19162346 0.016291663 -0.23028608 -0.22337931
0.07288182 -0.014556949 -0.0064825313 -0.35660943 -0.20298739 0.114325374 0.0006901112 -0.0014641047
0.16647309 -0.13655677 -0.0048520663 0.008759103 0.0052414113 0.32507914 0.24725075 -0.2895099
-0.0017714779 0.13422133 0.67492664 -0.16063944 -0.19239669 0.00851007 -0.0048787342 0.005778363
0.011282936 -0.0073828204 0.4933906 0.14418377 0.021091612 0.694289 0.24179657 -0.008372803
0.01092558 0.0022853645 -0.0062265447 0.25242105 0.0036181503 0.09338785 0.4758084 0.16957608
0.0040481463 -0.0018220837 0.45755783 -0.005966685 1.3449303 0.29204136 0.2662419 0.02079915
-0.3483494 0.20017454 -0.00049341633 -0.014660225 -0.010583753 0.00046926967 -0.00077976164 -0.109542266
-0.09430762 -0.13651137 0.46798417 -0.018293316 0.0038738698 0.10939722 0.013800853 -0.12020514
0.012555829 0.0016199229 0.0026781734 0.0006275282 -0.0022623935 -0.013344358 0.0059872195 -0.08389629
-0.0039389804 0.0073091174 0.20477861 0.0029545033 0.24987201 -0.06370427 0.05744403 0.006942907
-0.003087804 -0.017761474 0.011926765 -0.0047317077 0.0042665214 -0.0066103125 0.16431078 0.15274356
-0.1116526 -0.20026782 0.2297787 -0.760558 -0.006924203 0.06690356 -0.07203343 -0.20766188
-0.082492046 0.12363538 0.07240367 0.1358078 -0.14104775 -0.13092367 -0.17084543 0.93101174
