dino_ppo.pt (torch, 149521 bytes, 11 tensors)

_orig_mod.policy.0.weight f4 [128, 8]
00000000: 17b4 833e eae8 ad3e 1317 8f3c 7e1c e33e
00000010: a254 cfbd 1e40 983d e170 14be 7054 063e
00000020: 5147 b73e 3c64 10bf 55b4 863e 91e0 b73c
00000030: 0b34 703e 553a da3d 5a2c f13d a041 d9bc
00000040: 7c08 e43e f3dd ad3d 85d3 1fbe 7426 b53c
00000050: a45b cfbd 1f71 60bd 14ab 5bbe 1fcb 1f3e
00000060: f138 a5be 0716 77be 679c 1ebe ccd3 85be
00000070: 9098 a33d fbe1 98be af0e 3b3e 89e9 6ebe
00000080: 910c ba3e 2aec 143e 5427 d5bd 8b6d 403e
00000090: 5919 023e a9ed 543e f397 b13c d0c4 f3bc
000000a0: c8b0 d23c 1da1 8b3d 4059 dcbd b1f4 bc3e
000000b0: a0f1 833d 015e e53d daf5 b03d de8d 8f3c
000000c0: 1bb8 d13e 7183 8cbe f0ac 58be 5655 a3be
000000d0: 5cc6 88be 34cd ab3e 1ebb 4e3d 8c2b c63d
000000e0: 22a2 613d 98ba 043e baee 073f 3176 81be
000000f0: 1922 b73d 167e 8ebe 5951 583d 35fb 45be
00000100: 6c60 823d 4604 8abd 9f21 253f c215 4ebe
00000110: 9bb8 1abe a7bd 99be c255 bd3e 12ec 1f3e
00000120: 06b7 a83e c0bc 02bf 17e9 27bf 9ab0 55be
00000130: 2d54 55be 0e56 f93d 9300 e23d a332 093f
00000140: 6933 81be 112a 95be 6d8b 953e 06fa 08be
00000150: 88cf 3a3e e820 d4bd da2c 8e3e 599f 6dbe
00000160: 3782 87be 6489 963e 70a3 a93e 6770 6bbc
00000170: 7e4d 603e d68c 203e a5c8 28be fcea 33be
00000180: 2c90 ff3e 1354 f3bd cd9f ecbc 092d f2be
00000190: 57f8 183c 6fe2 aa3b 203e 64be 7ed1 b4bd
000001a0: 3c9d 153e f2e5 a3be 44bb 1cbf cab3 b2be
000001b0: 9ca2 d8be 65ef 28be 46e7 df3e 8560 c83b
000001c0: 4498 fc3d c14c 23bf e110 49be 3f1a 12be
000001d0: 0fa1 a53d c515 8bbe 0875 80be c992 4fbe
000001e0: 26aa 59bd e7d6 6bbe 31c6 46be 7dd4 81be
000001f0: bd45 3dbe 5e74 65be 651e 3abe 4a7b 2abe
00000200: d678 973e ba23 73bd 5b35 f33e fe9c 073e
00000210: c758 e4be 8ecb a53e 540e f4ba 0876 91bd
00000220: 9760 8abe bba2 0abf 8caf d73e f9d3 27bd
00000230: 64d1 be3d 4088 8ebe 8a92 903e d707 61be
00000240: df9a 2bbe 7214 ff3d ce84 3b3e ac17 cd3e
00000250: 87f6 7e3e 9c12 62be 0025 0b3e 24d5 043d
00000260: 7176 9bbd a859 f9be 2a47 d73e b808 6ebe
00000270: d20a 3e3e 2efd 0e3e 4c17 b83d 78d0 07be
00000280: 61b4 f23e a0a6 1a3e 5f60 20be 30b6 0abf
00000290: 5537 a83e a04d 01be 086c a7be f5a4 d43c
000002a0: 4743 fd3d 108b aebe 098b 90be c14e a8bc
000002b0: 68c1 463e 00e0 c5b6 a028 aabe c032 49be
000002c0: 59e7 b2be fe40 923e 2bcd 9f3e 2d2e 96be
000002d0: 9689 ed3d 2492 893d c57e 3d3e 1879 febd
000002e0: a9b3 093e 0161 e73e 6f6d 82be 75e2 23bd
000002f0: 927c 3bbe 700f 923d f491 483d d984 7bbe
00000300: adfa f13d bb8a 103f 962f cabe 7d57 64bd
00000310: 5977 43bc 83f1 943d 3a96 5cbc 516a bd3d
00000320: 550d 7ebe 6e84 3dbe 03ad f93e 966b 8b3d
00000330: ba39 3f3c e303 93be d7d1 20be b1fd 86be
00000340: 1962 0ebe a194 5f3e 35b2 023f 606b 263e
00000350: ce9d 89be c3a3 a9be 935a 573d 4239 803e
00000360: 98f0 f53d 8d1d 12be 3278 823d 4444 5abe
00000370: a92d 0ebe 85e5 803e 12e7 8ebe 0706 afbd
00000380: 2a40 efbe a832 d63e 48dc ad3e 43f5 593e
00000390: 78f4 94be ccca d2be d665 18be ae6a fb3e
000003a0: db1f fe3d 6113 233f c979 133e e4d4 583d
000003b0: 9671 0c3d 77f9 99be f8aa b0be 7430 0fbe
000003c0: 71a6 883e b87e b7be 5600 da3c a307 69be
000003d0: d7dd cfbc 625c b5be 3607 17be ffd4 45bd
000003e0: 02d2 3abe e12e 233f 6437 e8be 3288 97be
000003f0: 75c7 9bbd 3282 a7bd 48c6 58be 4903 24be
0.25723335 0.33966762 0.017467057 0.44357675 -0.10123564 0.074341044 -0.14496185 0.13118148
0.35796598 -0.56402946 0.26309457 0.022445949 0.23457353 0.10655657 0.117760375 -0.02652055
0.44537723 0.08489599 -0.15608032 0.022113062 -0.10124901 -0.05479538 -0.2145198 0.15604828
-0.32270005 -0.24129497 -0.1548935 -0.2613815 0.07988083 -0.2985991 0.1826732 -0.23331274
0.36337712 0.14543214 -0.10407892 0.18791787 0.12704982 0.20793785 0.0216789 -0.029756933
0.025719061 0.06817839 -0.107592106 0.36905435 0.06442571 0.111995704 0.086406425 0.017523702
0.40960774 -0.27444032 -0.2115972 -0.31901044 -0.26713836 0.33554995 0.050471418 0.09676275
0.055086263 0.12961805 0.5309864 -0.25285485 0.089420505 -0.2783057 0.052811954 -0.19334109
0.06366047 -0.06739096 0.64504427 -0.20125487 -0.15109484 -0.30027506 0.3697949 0.15617397
0.32952136 -0.5106926 -0.6559004 -0.2086815 -0.20832892 0.12174617 0.11035266 0.5359289
-0.25234535 -0.29133657 0.29207936 -0.13376626 0.1824323 -0.10357839 0.27768594 -0.23205318
-0.26466534 0.29401696 0.33132505 -0.0143700605 0.21904561 0.15678725 -0.1648279 -0.17570108
0.49914682 -0.1188127 -0.028884793 -0.47299984 0.009336553 0.0052149813 -0.22289324 -0.0882902
0.14610761 -0.32011372 -0.61223245 -0.34902793 -0.4231156 -0.16497572 0.43731135 0.0061150216
0.1233373 -0.6378899 -0.19635345 -0.14267825 0.0808736 -0.27165046 -0.25089288 -0.20270838
-0.05314078 -0.23031197 -0.19411542 -0.25357428 -0.18483634 -0.22407672 -0.18175657 -0.16648594
0.29584378 -0.059360243 0.47501644 0.13243482 -0.44598982 0.32381862 -0.0018619993 -0.07102591
-0.27026817 -0.54154557 0.4212612 -0.040973637 0.09317282 -0.27838326 0.282368 -0.21975647
-0.16758297 0.124550715 0.1831238 0.40057123 0.2489873 -0.22077411 0.13588333 0.03242983
-0.0759095 -0.48701215 0.4204648 -0.23245513 0.18558815 0.13963768 0.089888185 -0.13263118
0.47403243 0.15102625 -0.15661763 -0.54184246 0.32854715 -0.12627268 -0.3269961 0.025957564
0.12366348 -0.3409047 -0.28231075 -0.020545365 0.19409716 -5.8971345e-06 -0.3323412 -0.19648266
-0.3494213 0.2856521 0.31211218 -0.29332104 0.11598508 0.06717327 0.1850539 -0.124254405
0.13447441 0.45191196 -0.25474116 -0.040010888 -0.18309239 0.07131851 0.048967317 -0.24562396
0.11815391 0.56461686 -0.3948943 -0.055747498 -0.01193031 0.07272627 -0.013463551 0.09248794
-0.24809773 -0.18507549 0.4876481 0.0680763 0.011671478 -0.28713903 -0.15705048 -0.26365426
-0.13904609 0.21834041 0.5105317 0.16251898 -0.26878208 -0.33132753 0.052576613 0.25043684
0.1200878 -0.14269085 0.06370582 -0.21315104 -0.13884605 0.2517511 -0.27910668 -0.085460715
-0.4672864 0.41835523 0.33957124 0.21284966 -0.29092765 -0.41170347 -0.14882597 0.49104828
0.1240842 0.63701445 0.14401926 0.052937403 0.03428801 -0.3007314 -0.3450544 -0.13983327
0.26689485 -0.35838866 0.026611488 -0.2275682 -0.025374336 -0.35422045 -0.14748845 -0.048298832
-0.18244174 0.63743407 -0.4535476 -0.29596096 -0.07606403 -0.0817913 -0.21169388 -0.16016878

_orig_mod.policy.0.bias f4 [128]
00000000: 772f 8d3e c58d 0ebe e436 133e 4145 74be
00000010: 1f5e 163e 6552 fabe ace3 7c3e cbb8 89be
00000020: 2124 ac3d 1d96 f4be 485c 8fbc a72f ad3e
00000030: 7f56 133e 83d2 35be e3a0 0ebd 9407 3ebe
00000040: eb97 dfbe ea3f e03e 6b98 b83d 2a6a d1bd
00000050: 62f8 1ebe 5fa5 9cbe cfe2 a53d 87e1 59bd
00000060: 1b7a 8fbd 7733 6ebe e412 0d3f 2690 24be
00000070: 2621 bcbe e5d3 a3be 2f30 a93e a355 fabd
00000080: 38e0 2c3c e8d1 7abe c332 473d 1454 cbbe
00000090: cc95 b0be 7c75 cb3e 8f89 cc3e fab4 eb3e
000000a0: f288 84be 7a7e a93e a8ad bebe 9189 ac3e
000000b0: 21cb 713e dd97 c03e ba88 fa3e fa91 a33d
000000c0: 3958 213c 5cc2 1b3e 8f30 16be e3cf 573e
000000d0: a394 61be b180 a9bd 9e23 debe 9d9a 35be
000000e0: c156 9cbe e34f 74be 96fc d2be e77c d9be
000000f0: a624 a23d c0df b13e b03e d23e 108a 6b3e
00000100: a911 42be c02a b4be 593c 983e a2ad 583e
00000110: ccfd d9be 554f 673e cc0a e53e 2046 d63d
00000120: 50b9 a1be f909 dc3e 4474 b23e 4a96 5e3e
00000130: b337 06bf 806a cc3e 84a0 b2be 5be6 f93e
00000140: 575a 21be dd64 273e d382 363e b03d 4abe
00000150: 5719 10be acab 6b3d 4801 48be 08a2 d8be
00000160: 0c43 21be a762 bd3e 2dfc 883d a2bf 8b3e
00000170: 705d 71bd 01b7 c23e 5348 7d3e adbd 883e
00000180: b402 bbbd 2496 05bf 929d a13d 2d1f a9be
00000190: 57b7 da3e 5d1b fdbe e6b6 ff3d 4a98 9c3e
000001a0: 52ea 9b3e c642 1f3c 31c7 f3be b7a1 f53e
000001b0: 8017 9b3d e36c 00bf 4552 cf3e 41a5 b2bd
000001c0: 78aa 913b c6c3 d03e 7791 b5be 456d d0be
000001d0: 2d36 923e 60b2 073d 836d 3a3e 7368 d3be
000001e0: c7cd bc3c 458f 60be 65f5 84be 2b13 ebbe
000001f0: 9046 183e 7a7e 8a3d 9609 e4be 5b7b f53e
0.27575275 -0.13921268 0.14376408 -0.23854543 0.14684342 -0.48890987 0.24696225 -0.26898798
0.084053285 -0.47770777 -0.017500058 0.33825418 0.14388464 -0.17756085 -0.034821402 -0.18557578
-0.43670592 0.43798763 0.090134464 -0.10225327 -0.15524438 -0.30594918 0.08099901 -0.053193595
-0.07005712 -0.2326182 0.5510695 -0.16070613 -0.3674404 -0.319976 0.33044574 -0.12223365
0.010551505 -0.24494135 0.048632395 -0.39712584 -0.34489286 0.3973807 0.399487 0.46036512
-0.2588573 0.33104306 -0.37241864 0.33698705 0.23612644 0.37615862 0.4893244 0.07986827
0.009847694 0.15210861 -0.14666961 0.21075396 -0.22029357 -0.08276499 -0.4338655 -0.17734762
-0.30534938 -0.238586 -0.41208333 -0.42478105 0.079171464 0.3474102 0.41063452 0.23001885
-0.1895205 -0.35188866 0.29733542 0.21159986 -0.42576444 0.22588857 0.447348 0.10462594
-0.31586695 0.4297636 0.3485433 0.21737018 -0.5242874 0.39925003 -0.3488809 0.4880856
-0.15757118 0.1634707 0.17823343 -0.19750094 -0.14072166 0.057536766 -0.19531739 -0.4231112
-0.15748233 0.36989328 0.06688724 0.27294642 -0.058927 0.38030246 0.24734621 0.2670721
-0.09131375 -0.5218222 0.07891382 -0.33031598 0.42718002 -0.4943494 0.12486057 0.30584937
0.3045221 0.00972051 -0.47612908 0.4797494 0.07572842 -0.5016615 0.40492454 -0.08722926
0.0044453703 0.40774363 -0.35462543 -0.40708366 0.28556958 0.033129096 0.18205838 -0.41290626
0.023047341 -0.21929653 -0.2596847 -0.45913061 0.14870667 0.06762405 -0.44538563 0.47945675

_orig_mod.policy.2.weight f4 [128, 128]
00000000: b04a a33d 9099 fa3c 6814 b53b ee3c dfbc
00000010: 4b4a 023e fb01 d83d 7bae c6bd 32e3 f43d
00000020: 72e6 1ebe c47f 383d d911 cbbc 07bf 0a3e
00000030: 8fe9 d7bd 67e7 863b c005 98bc 5276 493c
00000040: b94e babd 15fd ddbd 6a4f 503c d684 90bd
00000050: a036 60ba 43f1 153e cad9 463d 64fe 753d
00000060: 3bdf 5e3d 30ef d3bb 93ab 9dbd d507 af39
00000070: 254e 3fbd 6590 953d cb5a 01be ba8c 4ebd
00000080: 7d1a 7bbd db57 45bd 9042 23bd 7850 6c3c
00000090: 7135 c6bc ac7d e93c 1b66 a9bd 0b66 023e
000000a0: cc78 f93c 344b 76be 139d 8e3d 1cfe 84be
000000b0: bbf6 0f3d b276 98bd dcaf a43c ce37 75bd
000000c0: ff55 06bd 31fc 60bc 31df 2f3c 2811 f03d
000000d0: d81f 923d 0a16 ecbd 6620 d63d 910a 9a3d
000000e0: 23db a63c e0c5 593d 16e5 cf3d d0ad 9c3c
000000f0: 26e2 413c 56d8 ee3c 6dd6 0ebd 3f03 3b3e
00000100: f4f0 0f3d 8875 073d 5c50 62bd 6696 40bd
00000110: 290f 983c 4592 663c 6e1e e9bc 7d79 f0bd
00000120: 4a4b 083d 71c5 b2bd 1259 b73c 6180 fa3d
00000130: 4ffa b03c a8cb 1ebc 9a97 d43d 2517 d2bc
00000140: 8cf9 83bd 57e8 06bd d82f 743d a931 48bd
00000150: 0e41 213e be64 223e 7e9c 02bc 4b95 3b3e
00000160: a5f9 adbd 64f6 cbbc eda7 b13c a560 39be
00000170: 46ea fbbc 8dc9 12be 2b4e d5bd 18f7 cabd
00000180: fb9f b6bd 1d00 ab3c ef10 943d 3627 07be
00000190: a73e 483c 31fc 1e3d 0d35 eb3d b37e 123c
000001a0: 55b5 0dbd 3692 c43c e58d 2e3d d842 5abe
000001b0: 1e47 5dbd c9a1 d63d 82bc c2bd 1091 cfbd
000001c0: ff37 e03d e2fd e43d 36fd 94bc 260d 0a3e
000001d0: 84b8 0abe 6e8c 07be f3c2 023d 2c18 b9bc
000001e0: 1341 aabc c48d 3dbc 4ab7 14be e02f 2b3e
000001f0: 5266 253c 30cc d03d 8d25 b1bc caf8 033d
00000200: 5348 25bd 9057 eabc 12b7 0d3d 4f49 5bbd
00000210: 11fe 14bd dd90 813d 7d6c af3d 1639 a9bd
00000220: b190 a83b cfc4 853c 0b10 383d ec7e 573d
00000230: 5ece ac3d 66f8 5bbd 8586 c83d fc2a 853d
00000240: eade 6bbd bee6 ddbd 249d 1f3c 1221 0f3c
00000250: 8e50 31bd fa9d 0a3d 5f74 ffbc f856 063d
00000260: 0fc9 8abc 46bd 113c b838 973c bb38 83bd
00000270: 7349 78bd c7fe 1bbb dd60 0f3d 489b bc3d
00000280: 12e5 813c 1c23 6abc f027 e13d 7347 53bd
00000290: 084a 4bbc 5018 38bb df19 01bd aae8 6c3c
000002a0: c10b b4bd f916 39bd cd3a 4e3d 7174 2bbd
000002b0: 0625 b0bd 03c4 bcbd acbe c53c 97c5 803d
000002c0: b96b 9cbd 8579 5d3d d8a3 97bd b3ab fbbb
000002d0: 7ea5 d33d a133 a93d f469 42bd b610 413d
000002e0: c712 4d3d 4477 2abc 0922 c93d 065b 0ebc
000002f0: 5975 d03a 3109 71bd e47d e83c 1615 603d
00000300: bbe5 803c 6bfd 46bd 589f 21bd 703f 0d3d
00000310: a150 a5bd edde e4bb 3c3c 01bd a7c6 6ebd
00000320: 97cf 8d3d 3218 2c3d 25e4 893d 41f1 69bc
00000330: eac6 03bd 235d c43d f1f4 683c a829 52bd
00000340: 06cd 31bd 291f 123c ddcb a4bd 2bce ad3b
00000350: 00a3 893d 6f17 2fbd f6f7 9bbd 2375 713b
00000360: 0dba a43d 0c07 8b3d 6c83 04bc 2707 403d
00000370: 2e5f 62bd faca 02be 64b2 713c cb6b df3c
00000380: 1a6b 4d3d 61f2 bbbc f8ee 2a3d 0183 2b3d
00000390: 72fd e03d 22dc acbd e3fd a63d 4851 babd
000003a0: e174 a03d 6efa feba deaa 31bd 9433 283c
000003b0: fa03 7fbd 4a67 7abd 0308 d9bc e312 3dbb
000003c0: 2c91 913d bef6 06bd 6bf2 983d 22e8 ed3a
000003d0: 80aa a7bc 03fd a4bc 03d6 45bd 8d61 a4bd
000003e0: 0650 3cbb 6ffe cdbd e21b b3bd cb83 c93b
000003f0: 992f debd 93e9 523b d489 55bc b27b acbc
0.0797323 0.030590802 0.0055261143 -0.027250733 0.12723653 0.10547253 -0.09701248 0.119573966
-0.15517595 0.04504372 -0.024788784 0.13549434 -0.10542595 0.004116941 -0.01855743 0.012296276
-0.090970464 -0.10839287 0.012714246 -0.070565864 -0.00085530616 0.14642815 0.048547544 0.06005706
0.054412108 -0.0064677224 -0.07698741 0.00033384436 -0.046705384 0.07302932 -0.12632291 -0.050427176
-0.061304558 -0.04817949 -0.0398584 0.014423482 -0.024195405 0.028502308 -0.08271428 0.12734239
0.030453108 -0.24052125 0.06963553 -0.2597512 0.03514741 -0.07444514 0.020103388 -0.059867673
-0.032796856 -0.013732002 0.010734365 0.11722022 0.0713498 -0.11527641 0.10455398 0.07521547
0.020368164 0.053167224 0.101511165 0.019125849 0.011833703 0.029155891 -0.03487246 0.18262957
0.0351419 0.03307107 -0.055252418 -0.04701843 0.018561916 0.014072959 -0.028456893 -0.11741922
0.033274926 -0.08729065 0.02238134 0.122315176 0.021603731 -0.00969211 0.10380478 -0.025645802
-0.06444082 -0.03293642 0.05961594 -0.048875485 0.15747473 0.15858743 -0.007971881 0.1831867
-0.084948815 -0.024897762 0.021686519 -0.18103273 -0.030751359 -0.14334698 -0.104153 -0.09910411
-0.089172326 0.020874077 0.07229792 -0.13198552 0.012221969 0.038814727 0.11484728 0.00894134
-0.03459676 0.0239955 0.04261579 -0.21314561 -0.0540229 0.10480077 -0.09508611 -0.1013509
0.109481804 0.11181237 -0.018187147 0.13481578 -0.1354695 -0.13237163 0.0319242 -0.022594534
-0.020782983 -0.011569444 -0.14523044 0.16717482 0.010095196 0.10195196 -0.02162435 0.032219686
-0.040352177 -0.028606206 0.034598418 -0.05353671 -0.03637511 0.063264586 0.08565614 -0.082628414
0.0051442017 0.016329197 0.044937175 0.052611277 0.08437799 -0.053703688 0.097912826 0.06502339
-0.057585634 -0.10835026 0.009742055 0.008735912 -0.043289714 0.033842064 -0.03118342 0.032797784
-0.016941575 0.008895224 0.018459663 -0.06407305 -0.06061692 -0.0023802982 0.035004485 0.09209305
0.0158563 -0.014290597 0.109939456 -0.05158181 -0.012407787 -0.0028090663 -0.031518813 0.014459768
-0.087913044 -0.045187924 0.050349046 -0.041859094 -0.08600812 -0.09217074 0.024138771 0.06287687
-0.07637734 0.05407097 -0.074042976 -0.0076803803 0.103342995 0.082618006 -0.047464326 0.047135077
0.050066736 -0.010404412 0.09820945 -0.008688694 0.0015904113 -0.058846656 0.028380342 0.05470761
0.015734544 -0.048581522 -0.039458603 0.034484327 -0.08072019 -0.0069845826 -0.031551585 -0.05829492
0.0692436 0.042015262 0.06732968 -0.014278711 -0.03217212 0.09588077 0.014218555 -0.051309258
-0.043408416 0.008918562 -0.08046696 0.005304118 0.06720543 -0.042746957 -0.07615654 0.00368435
0.08043299 0.067884535 -0.008087974 0.04688182 -0.05526655 -0.12772742 0.014752004 0.02727308
0.050150968 -0.022942724 0.041731805 0.041872982 0.10985841 -0.084404245 0.08153894 -0.090975344
0.07834793 -0.0019453296 -0.043375842 0.010266203 -0.06225965 -0.06113366 -0.026493078 -0.0028850369
0.071077675 -0.032950155 0.074681126 0.0018150846 -0.020467043 -0.020140177 -0.0482998 -0.08026419
-0.002873422 -0.10058295 -0.087455526 0.006149744 -0.10848922 0.0032182678 -0.013033349 -0.021055076

_orig_mod.policy.2.bias f4 [128]
00000000: f85c fdbd 1914 303d f502 8b3d 6436 36bc
00000010: c8a4 8abd 4f31 073e 3ae5 76bc 55eb 413d
00000020: dd20 87bc 5023 0cbd 827e a9bd 7335 a2bd
00000030: 759d c63d 6f89 0fbd 85a7 8ebc cc0f 663d
00000040: 9173 643c 590b 6b3e 68d6 86bd 953e fdbc
00000050: 59b4 503d 24fb 9ebc 9468 273e 1016 853d
00000060: f103 d63d 0c77 a63d ad92 393a 0a19 cc3d
00000070: 949e 23be 65c1 843d 42a7 ae3b 110a 56bb
00000080: 0c20 babd 802c 8f3d 81bb 653d 4e5f 31bd
00000090: 1a02 a93d 20ee 7b3d 0c36 dbbb 2951 3ebe
000000a0: fe68 38bc 9c6b 30be 5411 a9bd acec 88bd
000000b0: 82f4 20bd 5e83 29be 283c 943e 1f69 30bc
000000c0: baca abbd 1c94 413d 48ff 393c 2b6c 70bc
000000d0: 2ee3 b63d ea51 b93c 46d1 2f3e 931d bc3d
000000e0: 10f3 a7bd 4332 a3bd 1649 be3d 2625 203d
000000f0: a9d8 ad3d fd91 adbc 4a6a efbd 7689 ca3d
00000100: c516 0ebd a8cf 77bd 1146 5bbd 533b 183e
00000110: b71d b6bd 359f 47bc da35 283e eb0d 02be
00000120: ee9e 7f3e cb9c 213d 7905 e3bd 0948 ed3b
00000130: 17ec 2bbe 74db 27bc f626 37bc 7b68 eb3b
00000140: c317 653d 699a 443d fcfc 383d aebc 9ebc
00000150: 2813 a63d 681d 5f3d 0fe8 843d a4d8 c3bd
00000160: 8ea8 963c b8b4 3d3e 7829 f63d 164c 1e3d
00000170: 70b4 5f3c e19f b73c c999 bf3c 8c74 53bd
00000180: 9ce4 2ebd fe78 cabc 26b6 42bd 504b 8cbd
00000190: 4aaa 78bb c7ef 2d3d 2649 42bd 172a d13c
000001a0: 171d 9ebc 5b0c 203d 1451 45bd ef65 0abe
000001b0: 5052 f9bc 38bb b13d ab18 073d 1971 873c
000001c0: 13ea 2e3d f2bb 183e 577c 45bd 7178 8e3d
000001d0: 0419 d5bd 78f9 103e 168d afbd d9eb 013d
000001e0: 9809 343d 82e5 813d 588a 91be ad2b 78bd
000001f0: ba92 083e 246f 963d 6a3c 43bd 08a5 ce3d
-0.12371248 0.042987917 0.067876734 -0.011121366 -0.06769711 0.13202403 -0.0150693 0.04734357
-0.016495163 -0.034213364 -0.082760826 -0.07920351 0.09698001 -0.035043176 -0.017413864 0.05616741
0.013943569 0.22953548 -0.065838635 -0.03091363 0.050953243 -0.019406863 0.16348487 0.06498349
0.104499705 0.08128175 0.00070790463 0.09965713 -0.15978462 0.064821996 0.0053299973 -0.0032659809
-0.09088144 0.069909096 0.05608702 -0.04330378 0.08252354 0.06150639 -0.0066897925 -0.18585648
-0.011255501 -0.1722855 -0.08255258 -0.066857666 -0.03929568 -0.16554019 0.28952146 -0.01076725
-0.083882764 0.04726039 0.011352368 -0.014674227 0.0893005 0.022622067 0.17169675 0.09185328
-0.08200657 -0.07968571 0.09291284 0.039097928 0.0848859 -0.021187777 -0.11690195 0.098895
-0.034689683 -0.06050077 -0.053533617 0.1486638 -0.088923864 -0.012183954 0.16426793 -0.12700622
0.2496297 0.03945617 -0.11085028 0.0072412533 -0.1678928 -0.010245193 -0.011178723 0.007184086
0.055930864 0.04799882 0.04516314 -0.019377079 0.081091225 0.054471403 0.06489574 -0.09562805
0.01839092 0.1852597 0.12019628 0.03864678 0.0136538595 0.022415103 0.02338876 -0.05162482
-0.042698488 -0.024715897 -0.04753699 -0.06850302 -0.0037943297 0.042464998 -0.04743304 0.025532765
-0.01930098 0.039074283 -0.048173025 -0.13515447 -0.030434757 0.08678287 0.03298251 0.016533421
0.0427037 0.14915445 -0.048214283 0.06956566 -0.10405162 0.14157665 -0.08571832 0.031719062
0.04395446 0.06342603 -0.2842586 -0.060588527 0.13337222 0.07345417 -0.047665037 0.10090071

_orig_mod.policy.4.weight f4 [3, 128]
00000000: 44f3 ccbd f150 aabd 2972 f53d 9149 4bba
00000010: 0792 20bd 6ced 913c 76cb 823c 35d1 04be
00000020: e424 1a3d 1d58 043d 2274 6ebd 4852 adbb
00000030: 5939 253c 34d4 a5bd d087 0c3d e52a 123d
00000040: 8ccd 943d 48d2 44bc 1cdb 44bd b4ff 70bc
00000050: fa33 ef3d 43cd 4cbd a4f3 68bd 00aa 003b
00000060: 6303 033e 4976 e3bd 2213 b73c 68e1 ec3d
00000070: 0282 4e3c 4109 0cbe e94c bbbc 3193 c43a
00000080: 977a f63c 7811 1bbe 4333 27bd 0731 943d
00000090: 5ae4 68bc 6680 b43b 6371 c13c bc46 52bd
000000a0: 4327 17bd 9efe 833e 7285 14bd 9758 403c
000000b0: 969b 25bc 7ef8 7e3e acf5 c43d cc1c 6c3c
000000c0: 3f08 1f3d 7429 7a3d 28ad 473b d072 f13c
000000d0: a345 9bbd f43e 14bd a421 2fbe 079e a6bd
000000e0: 2905 17bd 6950 043d b751 163d 3190 263d
000000f0: 7ff8 10be e5f1 dd3c 6c7e d03d 086f d83d
00000100: 2911 ea3c 0ff7 eebd fea4 eb3d ab86 71be
00000110: 0b59 00be 6e26 803d 28f8 1fbe 10d3 1a3e
00000120: ca42 4cbe 461c c3bd 731f 6bbd 855d a5bd
00000130: c51b b53d 9737 8f3d 7642 7d3d 3e72 1dbd
00000140: 4ac9 ff3d ec2e 6abc 2c9d 353d f5dc ee3d
00000150: ec2f 0f3d 2cac 2d3d eeb0 6a3d e0da f4bc
00000160: 9fcc 0ebd 792b 70be 9334 94bd 53ad abbb
00000170: f5f6 d5bc d84f 81bd 4090 c93d 768f 2e3d
00000180: f644 37bd a3f8 723e 93b1 5b3d e6fd 063e
00000190: b675 643e 70df 7dbd 80df 353d 0ed3 833d
000001a0: 651f 413d 6bcb 22be 8ebf 2e3d bca0 073e
000001b0: dbb2 ca3d 74e2 3f3d 00b7 213e 4656 be3d
000001c0: 9225 493d 5d0e 12bd 4427 35bd 1f93 36bb
000001d0: a940 8fbc 43e7 233d 1c28 e93d 9a7c 74bd
000001e0: 0b22 e1bb 181c 1fbe 1b27 ddbc 70fd 4dbd
000001f0: 1a05 2fbe f372 2ebd 59c1 963d d32e be3d
00000200: 18d6 673d 2cda a4bd 66bc 36be 6f1f b0bd
00000210: a653 95bc b4cb 133e b039 ac3d 6837 583c
00000220: a513 22bd f058 703d 334c cb3c 6579 9c3c
00000230: 6be2 a33e ae96 a13c 6c3c 92bd 1623 ebbd
00000240: d6d8 1fbd b2b9 2cbf d27d 423c 0b86 45bc
00000250: 7c75 f33d 3ca6 5e3e 091d 0f3e e034 9cbc
00000260: d98e 4abc 6eb2 393e 4053 c4bb c2d3 b93c
00000270: c508 18be 24db 7abd c347 5abe ed2b 25bd
00000280: af6f efbd f3e5 3f3a a1a5 a1bc 92b3 523d
00000290: 2cf0 9e3d 28c0 173d be73 48bd 1152 bb3e
000002a0: ae2f 22bd ce27 aa3c e366 d2bd 6e3e 8e3d
000002b0: dbc5 953b b298 c9be d089 87bf f451 6abd
000002c0: 9efd df3d be4a 22bd 08dd 58bc 6e81 9cbc
000002d0: dac0 03bd 052b 26be 2da9 b23e 773e ae3c
000002e0: 9abb 933c b1fd 4dbd 0e3a 6bbd 5bbb b03c
000002f0: 5593 1ebe 6794 d1bc 326e 4abe 3305 303e
00000300: 0fe3 12bd ef4f ca3c 3ef8 813e 138e b63c
00000310: 6cb6 393e 3322 d23c 4bce a1be 1566 04be
00000320: a2a3 bb3e 3322 413d 7066 8d3e d903 f8bc
00000330: a930 08be df48 0e3d 3df1 e0bb 064a 0fbd
00000340: 1a77 4fbd 4af2 8dbd c6be b0bd db61 753d
00000350: b445 3cbd 92bc 953b 3337 92bd 3516 f23d
00000360: 7d63 ba3c f901 c73e 4c95 a33d 8732 e7bd
00000370: bf73 91bd 4f2c 50be af4a cd3d 0aba d3bd
00000380: 63a7 a83d 6ed3 7fbe 0cc3 f8bd bc8b 77be
00000390: b7e3 a43b 2bce 17bd 7e8d 41be 5d10 003e
000003a0: 80f9 ee3c 2cfa ff3d 0769 1abc 46b8 0bbe
000003b0: e64d 60be b131 b4bd e47d 753e c025 a23e
000003c0: f227 70bd da15 bbbe c8eb 1f3d 6e15 7dbe
000003d0: 544c 9b3d 2628 b0be 0677 1cbd b87c bfbc
000003e0: 6286 66be 3876 753e 2d47 243f 3785 a23d
000003f0: dfdb 773e ae9e dbbc 6cb3 89bd 95b9 b53b
-0.10007337 -0.083162196 0.11984665 -0.00077547977 -0.039201763 0.017813407 0.015966158 -0.12970431
0.037632838 0.032310594 -0.05821622 -0.0052893497 0.0100844735 -0.08097115 0.03430921 0.03568544
0.072657675 -0.012013026 -0.04806052 -0.014709402 0.116798356 -0.05000044 -0.05687298 0.0019632578
0.1279426 -0.111065455 0.02234799 0.1156643 0.012604238 -0.13675405 -0.022863822 0.001499748
0.030087752 -0.15143383 -0.04082037 0.07235914 -0.0142145995 0.0055084703 0.023613637 -0.05133699
-0.036902677 0.25780195 -0.036260076 0.011739871 -0.010107895 0.2489948 0.09617171 0.014411163
0.038826223 0.06107469 0.00304682 0.029473692 -0.075816415 -0.03619285 -0.17102677 -0.0813561
-0.036870155 0.032303248 0.036699023 0.040664855 -0.14157294 0.027092883 0.10180363 0.105680525
0.028572636 -0.116682164 0.11506079 -0.23586528 -0.12533967 0.0625733 -0.15622008 0.15119576
-0.19947353 -0.09526877 -0.05740304 -0.08074478 0.08843187 0.06993025 0.06183096 -0.038439028
0.12489565 -0.014293414 0.044339344 0.11663238 0.03495781 0.042400524 0.05729764 -0.029889524
-0.03486311 -0.23454084 -0.0723659 -0.0052391677 -0.026118735 -0.06314057 0.09841967 0.042617284
-0.0447435 0.2372766 0.053636145 0.13182792 0.22310528 -0.061980665 0.0444026 0.0643674
0.04714908 -0.1589791 0.04266315 0.13244909 0.09897395 0.046846822 0.15792465 0.09293799
0.049108095 -0.03565823 -0.0442269 -0.0027858687 -0.017486887 0.04001547 0.113846034 -0.05968914
-0.0068705133 -0.1553806 -0.026996186 -0.050290525 -0.1709179 -0.042590093 0.07361097 0.09286275
0.05660066 -0.080494255 -0.17845306 -0.085997455 -0.018228363 0.14433175 0.084094405 0.013196804
-0.039569516 0.058678567 0.024816608 0.019100854 0.3200868 0.01972517 -0.07140431 -0.114813015
-0.03902515 -0.6747085 0.011870818 -0.012055884 0.11887643 0.21743101 0.1397592 -0.019068182
-0.012363159 0.18134472 -0.0059913695 0.022683982 -0.14847095 -0.061244145 -0.21316437 -0.040325094
-0.11691224 0.0007320337 -0.019732298 0.051440783 0.07760653 0.03704849 -0.048938505 0.3658605
-0.039596252 0.020770933 -0.1027353 0.06945501 0.0045707054 -0.3937431 -1.0588932 -0.057207063
0.109370455 -0.03962206 -0.013236292 -0.019104686 -0.03216634 -0.16227348 0.34894696 0.02127002
0.018033791 -0.050290767 -0.057428412 0.021573713 -0.1548589 -0.025583459 -0.19768599 0.17189483
-0.03586107 0.024696318 0.25384706 0.022284543 0.18135995 0.025651073 -0.31602702 -0.12929566
0.3664828 0.047151756 0.27617216 -0.030275272 -0.13299812 0.034737464 -0.0068646953 -0.034982704
-0.050650693 -0.069309786 -0.08630137 0.059907775 -0.04596491 0.0045695985 -0.07139435 0.11820642
0.022752518 0.38868693 0.079874605 -0.11288934 -0.07102155 -0.20329402 0.100240104 -0.103382185
0.082350515 -0.24982998 -0.12146577 -0.24174398 0.0050320285 -0.03706185 -0.18901631 0.12506242
0.029171705 0.124988884 -0.0094244545 -0.13644513 -0.21904716 -0.087985404 0.23973805 0.31669426
-0.058631845 -0.3654011 0.039043218 -0.24715206 0.07582918 -0.3440563 -0.038199447 -0.0233749
-0.225122 0.23970878 0.64171106 0.07935565 0.24204968 -0.026809063 -0.06723675 0.0055458047

_orig_mod.policy.4.bias f4 [3]
00000000: 03ac 93bd 8b1c c2bc d571 e03d
-0.07210543 -0.023695251 0.10959212

_orig_mod.value.0.weight f4 [128, 8]
00000000: 0d4d 8a3e 3edf 83bb 8acb bb3e 53b9 5c3b
00000010: 2e85 a0be d6a6 17be 47b5 43be 3005 353f
00000020: 3f0c 873e 4391 53be 4759 1abf 3443 823d
00000030: 735b 913d 3ce2 eebe 0e5f d83d a451 e9bd
00000040: da0a 9f3e 0ce8 bcbe 6827 47bf e483 f0be
00000050: 9eb3 5bbd 8993 d9bd 7bb7 4a3e b0f8 463d
00000060: fbe6 ac3e c77b 173d 0324 e9be e1da 7dbe
00000070: 74c5 b8be 7f61 7cbe 66f5 3e3d a896 573e
00000080: 81af 05bf e4d4 d03e 4e4b 123f 99c9 b63e
00000090: cc20 e03b 9f48 653e 9045 073f 295e e13d
000000a0: c314 be3d c081 d63e ea7f afbe ee4e 21be
000000b0: 66cc 933d b6c8 933e d215 df3e 9a40 2fbd
000000c0: 592f c53c 4f18 373e 361c 383f 5493 80be
000000d0: 0e89 bf3c 0970 aebd a813 f03e 1c17 d43d
000000e0: eb6d 4dbe a0d0 18be 9c10 123f aa8b b5bd
000000f0: 754e 39bb e942 ea3e 550a c2be 1d1a ec3c
00000100: 8557 d2be e142 89be 9aff bd3e 22b8 613c
00000110: 7595 413e 7fa2 85be f3ba 1f3e b1f5 85be
00000120: 2e28 263e 1da7 c6bd a96e f33e ba26 a43d
00000130: da35 0a3d b9e1 ffbd 3346 823d eb24 393f
00000140: aafc b9be d448 883e c76d 983e bd7f b0bd
00000150: fe83 babe 639a b03e 11e9 12be dde6 053e
00000160: 0e34 cdbd ac57 bd3e 000a 07bf cad2 813c
00000170: 503f 503e e851 11be 7d51 80be 8ac1 c3bd
00000180: fc9a eb3e 9cd4 c33e 3136 06bf c7ec 523d
00000190: d1a3 803e cfaf f93d 39df f53e 3b4a f33b
000001a0: 1fa5 03be 400b b13e ffc4 903f 2c2a f93d
000001b0: a45d 80bd 30b6 0eba 2d03 0c3f ed39 07be
000001c0: 6881 d9bd 293c ca3d 7370 5ebd b137 12be
000001d0: ad31 bb3e 0f63 56be 7990 673e f50c cfbd
000001e0: 6a61 2fbf c961 7ebf be0e 383e 5482 e93e
000001f0: 1a59 5cbc 6726 853d a2cf 683e 5a67 bebc
00000200: 02e4 9d3e e2af 913e 5c1e e33e badd 763d
00000210: b6b6 a2be 07e9 793e a577 003f 5857 2b3e
00000220: 86fa e43d b8d1 8ebd 0c79 983e f81a 00be
00000230: 3744 7ebd 923b db3e b8b7 91be 1414 9cbe
00000240: d775 a13d e378 a23e ad0f 03bf a023 1c3e
00000250: d941 453e 1eb8 42be d688 653e 8d87 e23d
00000260: 7155 26bd 3777 d1be fa74 083f ff3b ddbd
00000270: 612b d0be 0e1f 8e3e 0e75 b73e ad73 52bb
00000280: f16b 5dbe 0dc6 00bf 5d1b ec3e b7d7 5b3d
00000290: 1579 8a3e e226 dc3e 3818 c6be 9f1d 40bc
000002a0: d59a 173f e111 0c3d b5a6 ccbe cfdf b6be
000002b0: 2b41 b13b 610e e4bd 9912 acbe 608f 07bf
000002c0: 0d7c b83d 8138 3bbe 1d81 593e 63e3 6c3e
000002d0: dcb2 1abf 6771 d3bc 7d0e f13e c901 21bd
000002e0: f629 6b3e c868 08bf 80ac 383f 245d eb3d
000002f0: 873e 79be f867 113e cce9 003e 0d67 3e3e
00000300: a15a 28bd 6d0f 8bbe b688 e0bd 3f52 56be
00000310: b181 d23e d7d0 21bc 2b7a 983d 869f 5fbe
00000320: 5faa 02bf 8d71 6b3d 2c38 053f f29d cf3e
00000330: 1765 32bc 2915 cd3d 7fdc 4ebc 59c5 67bd
00000340: 224f ba3e b39a 3dbd b844 ac3e df6d 79be
00000350: a1fc dfbd b35c 2dbe b41d 163f 4a37 6b3e
00000360: ce50 e03c 1725 7f3e 156a 08bf 1f53 93bd
00000370: 53e1 6c3e cbc6 62be ccde b13c fce6 873e
00000380: 072a a1be ed03 3abe 7afd 6fbf c5dd d7be
00000390: 4c62 71be 2034 093e d536 843e 8511 0c3e
000003a0: 3ed6 a93d fd9f 34be 9572 e9be f180 a23e
000003b0: ff8e 503e 7095 f43e 8403 50bf 8997 20be
000003c0: daf2 36be 9630 5f3e ce63 3bbf d04c cabd
000003d0: e888 a4be 071a 163e 0532 1c3e 6837 ba3b
000003e0: 5973 acbd 426a 8dbf 421f 52be 65d3 663c
000003f0: d633 2ebd 426a 52bd 5bc8 643c 76a2 913f
0.2701191 -0.0040244153 0.36678725 0.0033679798 -0.31351608 -0.14809737 -0.1911212 0.7071104
0.2637653 -0.20660882 -0.60292476 0.06360474 0.07097521 -0.46656978 0.10565005 -0.11392525
0.31062967 -0.36895788 -0.77794504 -0.46975625 -0.053638093 -0.10623843 0.19796555 0.04857701
0.33769974 0.036983278 -0.45535287 -0.24790527 -0.36088145 -0.24646567 0.04662075 0.21053565
-0.5222092 0.40787423 0.57146156 0.35700682 0.006839847 0.22390984 0.5284052 0.11004288
0.09281304 0.41895866 -0.34277278 -0.15752766 0.0721672 0.28864068 0.43571335 -0.04278622
0.024070429 0.17880367 0.71918046 -0.25112402 0.023380782 -0.08517463 0.46889997 0.1035597
-0.20061462 -0.14923334 0.57056594 -0.088645294 -0.0028275524 0.45754173 -0.37898508 0.028821046
-0.41082397 -0.26808837 0.3710907 0.013776811 0.1890467 -0.26100537 0.15598659 -0.2616401
0.16226265 -0.09699843 0.47545364 0.08015199 0.033742763 -0.12494225 0.06361046 0.7232196
-0.3632558 0.26618063 0.29771253 -0.08618114 -0.36428827 0.34492788 -0.1434672 0.13076349
-0.10019694 0.3698095 -0.52749634 0.015847582 0.20336652 -0.14191401 -0.2506217 -0.09558399
0.4601668 0.38248146 -0.5242644 0.05149534 0.25124982 0.12191736 0.48021868 0.0074246204
-0.12855957 0.34578896 1.1310118 0.12166247 -0.062678605 -0.0005444018 0.54692346 -0.1320569
-0.106203854 0.09874756 -0.05430646 -0.14279057 0.36561337 -0.20936225 0.22613706 -0.10109893
-0.6850802 -0.9936796 0.17974374 0.45607245 -0.013448978 0.06501465 0.22735456 -0.023242641
0.3083802 0.284545 0.443591 0.06027005 -0.31780022 0.24405299 0.50182563 0.16732538
0.11180596 -0.069735944 0.2977985 -0.12510288 -0.062076773 0.42818886 -0.2846048 -0.30484068
0.07883804 0.31732854 -0.51195794 0.15247965 0.192634 -0.19015548 0.2241548 0.110610105
-0.040608827 -0.40911266 0.5330349 -0.10802459 -0.40658095 0.27758068 0.35831493 -0.0032112405
-0.21623208 -0.503022 0.46114627 0.05367252 0.27045503 0.42998415 -0.38690352 -0.011725812
0.5922063 0.03419674 -0.39970937 -0.35717627 0.00540938 -0.11135555 -0.3360794 -0.5295315
0.09008036 -0.18283273 0.21240659 0.23133616 -0.6042917 -0.02581091 0.47081366 -0.039308343
0.22965226 -0.53284883 0.72138214 0.114923745 -0.24340259 0.14199817 0.12589186 0.18593998
-0.041102055 -0.27160206 -0.109635755 -0.20929812 0.41114572 -0.009876451 0.07445177 -0.21838197
-0.51041216 0.057481337 0.52038836 0.4055019 -0.0108883595 0.100138016 -0.012625813 -0.05658469
0.363885 -0.04629011 0.33646178 -0.24358319 -0.10936857 -0.16929893 0.58639073 0.2297031
0.02738228 0.24916492 -0.5328687 -0.071935885 0.2313283 -0.22146146 0.021712683 0.26543415
-0.31477377 -0.1816556 -0.9374615 -0.42161384 -0.23572654 0.1339879 0.25823084 0.13678558
0.082928166 -0.17639156 -0.45595232 0.31739 0.20367049 0.47770262 -0.81255364 -0.15682806
-0.17866078 0.21795878 -0.73199165 -0.09877932 -0.321357 0.14658366 0.15253456 0.0056828745
-0.08420438 -1.1048052 -0.20519736 0.014088486 -0.042529903 -0.051370867 0.013963784 1.1377704

_orig_mod.value.0.bias f4 [128]
00000000: 2782 2ebf e71b 623e 32be 28be 00e7 b83e
00000010: 6812 5c3e 25c9 0d3f 9e30 243f cef0 0cbe
00000020: 0391 05be 6afe 39bf f696 afbd 95a7 04bf
00000030: 8ad6 c63e 1f39 a53d 3e25 9fbe 839b 52be
00000040: 1c24 e63e eebe a4be 3ab4 dc3e a41c 933d
00000050: a185 00be 258b a4bd ef02 6e3e 489c 96be
00000060: 8430 1cbf 04e3 04bd 0325 0dbf 730b 99be
00000070: fefd 9e3c b231 443e fcf4 89be 6f05 61bf
00000080: 4ada 623f 5fe1 19bf fc6f ff3d 0657 943d
00000090: faf1 863e de40 92bc f017 fabc dcef 11bf
000000a0: 4f1e 9f3e 01fa d0bd 5963 47be f16c fcbe
000000b0: 3b4e 2d3f eb9e ecbe 4913 ba3e ddad 43be
000000c0: d6d0 1fbf cf3a 263f 990d ec3d 71c8 243e
000000d0: de08 20bf 285e 5dbf 9ed0 f33e b03a 02bf
000000e0: 31f1 df3e 1533 e33e a801 55be 99d9 26bf
000000f0: 6df2 243f 8e62 04bf 71f6 eabe d5b8 1ebf
00000100: 18cf e83e ffa3 113f 6a3c edbe 99ff f1be
00000110: a063 243f 17cf e53e ab72 213f 44cd 2bbf
00000120: f2a8 3d3f 8577 5abe 1ef0 1ebe 6d1f 98be
00000130: e75d 11be a95e 043f cb5d 96be 2a7b aebe
00000140: d7e4 453e c747 2abf cfcd 07bf 6091 353e
00000150: 415e 1d3f b105 dfbe 5877 923e addb 10bf
00000160: 2ce5 82be 6375 bb3e 6fa0 62bc e4fe 58bf
00000170: d595 4cbf fbea 34be 736a c13e e26f 353f
00000180: 56aa 613e ce18 23bf 0f92 9c3d d5ee 15bf
00000190: 829f 52be 138d 31bf efc9 48bf 4966 d63d
000001a0: 4e6b 893f 5956 e83d 5645 97be 4bcf 253f
000001b0: 20b1 833e 12db 26bf 88c5 14bf a267 853c
000001c0: 9046 cfbe 1cfd b8be 191c 9abe cc4f e1be
000001d0: b671 1ebf 5392 16bc 2f4b a93d 1615 d23e
000001e0: 4bcb 0abf 3161 353f 4f0c 183f a0b2 29bf
000001f0: a59a fd3e f4c4 373f f71e 05bf f694 0e3f
-0.68167347 0.22080956 -0.16478804 0.3611374 0.21491396 0.5538505 0.64136684 -0.13763735
-0.13043599 -0.7265383 -0.085737154 -0.5181821 0.38835555 0.080675356 -0.310831 -0.20567136
0.44949424 -0.32176918 0.43106252 0.07183197 -0.12550975 -0.08034352 0.23243307 -0.29416108
-0.6101153 -0.03244306 -0.551346 -0.29891548 0.019408222 0.19159582 -0.2694472 -0.87898916
0.8861433 -0.60109514 0.12472531 0.07243161 0.26356488 -0.017853197 -0.030528992 -0.5700662
0.3107781 -0.102039345 -0.19471492 -0.49301866 0.67697495 -0.46214995 0.36342838 -0.19109292
-0.62428033 0.64933485 0.11526031 0.16092087 -0.6251353 -0.86471796 0.476201 -0.508708
0.43738702 0.4437491 -0.20801413 -0.6517578 0.6443241 -0.5171288 -0.45891145 -0.6200078
0.454705 0.56890863 -0.46335155 -0.47265318 0.64214516 0.4488456 0.63065594 -0.67110085
0.74085915 -0.21334656 -0.15521285 -0.29711476 -0.14195977 0.5170694 -0.29368433 -0.34078342
0.19325577 -0.66515774 -0.53048414 0.17731237 0.61471945 -0.4355903 0.28606677 -0.565852
-0.2556547 0.36612996 -0.013832196 -0.8476393 -0.79916126 -0.17667763 0.37776527 0.70873845
0.22037634 -0.63709724 0.07645046 -0.58567554 -0.2056866 -0.6935589 -0.78433126 0.10468728
1.0735872 0.113445945 -0.29545087 0.6476943 0.25721073 -0.65178025 -0.5811391 0.016284768
-0.40483522 -0.36130607 -0.30099562 -0.44006193 -0.6189226 -0.00919016 0.08266293 0.41031712
-0.5421645 0.7085143 0.5939378 -0.66288185 0.49532047 0.717849 -0.52000374 0.55696046

_orig_mod.value.2.weight f4 [128, 128]
00000000: 1f93 e03c 5b94 843d 21a9 78bd ea51 c0bd
00000010: 4314 263e 1ca3 f1bc d02b bb3d f224 0abe
00000020: 495f 363e dd89 983a ca02 c03d 3f1d a6bd
00000030: 22ac a0bc 4c4f 813c 2438 3cbd ca17 103d
00000040: 4959 e63d e3d6 17be 8521 5c3d 06e1 24bb
00000050: 2cbf 22be d618 26be a0d0 953d e5c8 c73d
00000060: 8ebb 323d 50a1 713d baed d03d 8810 74bd
00000070: 6bf1 d93d abe8 1bbe a3e9 683d 6df7 9fbd
00000080: 37ba 18be 7068 3c3e 57d7 003d f11c dc3d
00000090: 193f ffbc e23d edbd 7b12 c0bd 61d0 3ebd
000000a0: c672 1abc 35ab 23bc bd54 5d3e 46d5 fd3d
000000b0: 031a b4bd 1adb 17bb c858 b5bd c00a 203c
000000c0: 76f0 8e3c d5da 7abd 9bd7 0bbd 80ab 03be
000000d0: 5d35 6c3d 9e5a 13bc 0b91 983d f614 913d
000000e0: 1b36 a53d 2c6e 3fbd 23bd fb3d 453f 67bd
000000f0: 8528 5bbd 03d0 10bd 4e05 25be f204 a7bd
00000100: 2e73 f63d ce4e 8bbd 1a8d cf3c dbe4 1f3e
00000110: e5a6 01be 3e1c bc3d 93a9 73bd 122d 543d
00000120: ce3f ecbc bbbd dcbd dd05 adbd a878 833d
00000130: e6ef 2f3d 2dfa fd3c 04cd 123c 0b37 86bd
00000140: 3063 a23d c09d f63c daf9 d03d 35d5 20bc
00000150: e6e5 48be 21d6 07be 5773 8dbd 11e7 88bd
00000160: c607 c53d 1f25 28be 602c b33c 3df5 313e
00000170: bc21 df3c 2576 143d f5bb 0bbe e93c c0bc
00000180: 46f0 ecbc 2174 933d b6b8 c03d 2f4f 1abd
00000190: 320a 9ebd 7dc7 a03d 4e9b 49bd 98cc 2d3c
000001a0: 004f 8e3d b0d0 ba3c 3d88 683c 26a6 41be
000001b0: 4499 ce3d f162 143d eb33 fc3d d9f4 2fbe
000001c0: a944 9b3d 7f76 3e3c 4891 20bd e6c5 5a3c
000001d0: 2ba6 21bd c40a 50bc 0225 56bd 9a8f 70bc
000001e0: 0470 af3d 7e64 18be 99dd a23d 7851 6e3b
000001f0: ff82 8cbc d190 7cbd 3525 fbbd a074 38bc
00000200: 2dfd 07bd bafb 28be db5a 423c d769 c9bd
00000210: b909 0c3e 55a5 fc3d 1a51 7f3d beaa 513c
00000220: e1ca 4e3e 87ce a53c 9f64 1c3e 95df 2cbe
00000230: d9a7 1ebe f376 90bd f48f 85bd 980a 013e
00000240: 38b1 fb3d 1945 723d 87a3 83bd 7a6e 863e
00000250: 422c 0abe 7217 10be 4ebf 493e a8f5 143e
00000260: e26d b1bd 592f 223e 89e8 143e 2a9c 30be
00000270: 2ebb 023e dc9c 4cbe d5d4 203e ef4c ffbd
00000280: b5f3 99bd 462a b6ba 0f9d 35be 9992 3f3e
00000290: c993 01be d834 22bd 6526 9cbc 11b9 68bd
000002a0: ebb1 b0bd f2dc 8cbd b1b8 2f3e 9e09 30bd
000002b0: c47d 123d 0983 0fbe 21c8 a7bd c555 3e3e
000002c0: abf7 413d 5458 bebc a94f bbbd 0230 80be
000002d0: b2d5 c63d 2d51 de3c 5c38 963d b2ad 3c3d
000002e0: 4675 d53b 213b abbd e718 313e 4f2a 35bd
000002f0: a7c0 85bd 524b da3c a547 f9bd f466 efbd
00000300: df81 8e3c f205 1abe 9588 0f3e f0ef e23c
00000310: e1ae 443d 6aca bd3d e866 9ebd 1178 e7bd
00000320: 696e d83b c1ed 2fbe 6762 a8be 4fb7 6f3e
00000330: f045 ab3d ef84 093d b670 253e 835b 883d
00000340: a996 aabd c63d 583d 8022 72bd d666 92be
00000350: c20e cebd 010d 22be caed 43bd 7751 53bd
00000360: db7c f4bb f4df 52be 9ebb 2a3e c09e f0bc
00000370: 26bc debb 3f70 d63d 6b83 97bd 550e cc3c
00000380: 46e6 123e 3b97 9abd e62c 1d3e 948f a73d
00000390: 7297 b53d 5e9a d3bd 6182 753c d10f e23d
000003a0: 1139 cb3d 7f5c 0bbe a6dc 9bbe b5c7 da3c
000003b0: 71ca a23b 9af6 d7bd ca00 d83d ac26 83bd
000003c0: 7457 2d3e c24b 9d3d 4eb9 2f3d c42c 673d
000003d0: e0ae 6e3d 26ad 11be a643 e0bd 8bb5 2fbd
000003e0: b62e 7abd 5c14 e8bd edf2 35be 47e7 ea3c
000003f0: 74e8 d3bd a0bc b63d 36eb 01bd 05f9 bcbd
0.027413903 0.06473609 -0.06070817 -0.09390624 0.16218667 -0.029496722 0.09139216 -0.13490656
0.17809786 0.0011637766 0.09375532 -0.08111047 -0.01961333 0.015784882 -0.045951977 0.035178937
0.112474985 -0.14828067 0.053742904 -0.0025158538 -0.15893239 -0.16220412 0.07315183 0.097551145
0.043635897 0.05899173 0.10201593 -0.059586078 0.1064175 -0.15225475 0.05686344 -0.078108646
-0.14914785 0.18399215 0.031455364 0.10747708 -0.031158017 -0.11584069 -0.09378525 -0.046585444
-0.009426778 -0.009989549 0.21614356 0.12394194 -0.08794024 -0.0023171366 -0.08854824 0.009768188
0.017448645 -0.06124385 -0.034141164 -0.12858391 0.05766808 -0.008993773 0.0744954 0.07084076
0.080669604 -0.046735927 0.12291934 -0.056456823 -0.05350544 -0.035354625 -0.16115305 -0.0815524
0.120336875 -0.0680214 0.025335837 0.15614645 -0.12661321 0.09185074 -0.05948789 0.051800795
-0.028839018 -0.10778376 -0.08448384 0.06419498 0.042953394 0.031003082 0.008960012 -0.06553467
0.07929075 0.030104518 0.102039054 -0.0098164575 -0.1961895 -0.13265277 -0.06906765 -0.066846974
0.09620623 -0.1642041 0.021871746 0.17378707 0.027237765 0.036245484 -0.13645919 -0.023466544
-0.028923165 0.07199884 0.09410231 -0.03767317 -0.07716788 0.07850549 -0.049220376 0.010607861
0.06948662 0.022804588 0.014192638 -0.18911037 0.10087827 0.03622717 0.1231459 -0.17183246
0.07581455 0.011624931 -0.03920105 0.013352847 -0.03946511 -0.012697879 -0.052281387 -0.014682675
0.08566287 -0.14882085 0.07952423 0.0036364477 -0.017152308 -0.061661545 -0.12262956 -0.011258274
-0.03320043 -0.16502276 0.011862482 -0.098346405 0.13675584 0.12336222 0.062333204 0.012797056
0.2019458 0.020240081 0.15272759 -0.16882165 -0.15493716 -0.07053938 -0.065215975 0.12601697
0.12289661 0.059147928 -0.06427675 0.26256162 -0.13493446 -0.14071444 0.19701883 0.14546835
-0.086635366 0.15838374 0.1454183 -0.17247072 0.12766716 -0.19981712 0.15706189 -0.12465846
-0.075171866 -0.0013898097 -0.17735694 0.18708266 -0.12654032 -0.039601177 -0.019061277 -0.056817118
-0.08627685 -0.068780795 0.17160298 -0.04297792 0.03576447 -0.1401483 -0.081924684 0.18587406
0.047355335 -0.023235478 -0.09146053 -0.25036627 0.09708728 0.027138317 0.073349684 0.046064086
0.006514224 -0.08360887 0.17294656 -0.0442298 -0.06530886 0.026647244 -0.12171868 -0.116895586
0.017395912 -0.1504133 0.14016946 0.027702302 0.04801834 0.09267123 -0.077344716 -0.11302198
0.006604959 -0.1718054 -0.32887575 0.2340977 0.08362949 0.03357404 0.16156277 0.066580795
-0.083295174 0.052793287 -0.059114933 -0.28594083 -0.100614086 -0.15825273 -0.047834195 -0.051591363
-0.007461173 -0.20593244 0.16673133 -0.029372573 -0.0067973314 0.10470628 -0.07398113 0.024909178
0.14345655 -0.07548376 0.15349159 0.08181682 0.088667765 -0.103321776 0.014984698 0.11038173
0.09922994 -0.13609503 -0.3044178 0.026706556 0.0049679806 -0.105450824 0.105470255 -0.064038604
0.16927892 0.07680465 0.04290133 0.056439176 0.058272243 -0.14226207 -0.10950403 -0.042897742
-0.061079703 -0.11332008 -0.1776845 0.028674735 -0.10347071 0.08922696 -0.031718455 -0.09227184

_orig_mod.value.2.bias f4 [128]
00000000: c9ee 9abd b398 413d 91eb 233e 7afb 01bd
00000010: a309 2c3d 1150 86bb 8fac cabd 0cf7 75bd
00000020: caec bb3e d5fd d6bc 5104 c0bc 7aa4 b03e
00000030: 449e 24bd 4a9c 4a3e de83 8e3e f4e6 d7bd
00000040: cbd4 7e3d beaa e0bd 857e 6e3b 4a80 9f3d
00000050: a490 cb3d 95e8 cfbd 8afc 863e fc47 1ebe
00000060: c0ab bf3d fb93 23bc ef29 863d d30a a03e
00000070: f45e 9dba cee6 313e 61bf a03d 7b3b 93be
00000080: 29cb b2bd 6398 ee3d e718 fa3c 4cda 163c
00000090: 4434 4fbd 4ee6 a3bd c8f3 cabb 28dc 3e3e
000000a0: 4114 b13c 35a9 993e 5bff 6d3e 1225 86be
000000b0: 64b9 70be 9abc 3c3d f89d c1bd 6080 e9bd
000000c0: 04a3 3d3e 4f1b b5bc 640c 1a3e 0b88 c73d
000000d0: 4690 3ebc ae1c b7bd c919 1ebe 6752 2dbd
000000e0: 164d b0bb 79db 13bd 2001 84bd 95e8 b4be
000000f0: e41d 71bd 4929 5cbe 1acc 993e 0653 333c
00000100: 51b0 9fbd 6f6d 923d b1e6 953e 5569 09bd
00000110: ebcc 043f d18a 0cbe 763f 583e 7e7a 8a3d
00000120: 5120 84be 36d1 ec3d 4ba8 9bbc 1fd4 11bd
00000130: d34e 3a3d 31a1 f73d e0dd 31bd 868f e43d
00000140: 7038 82bd a58f 073d f59f 963c d4bf 323d
00000150: 646a 9dbd 54ba c03d 3b47 71bd b5f9 423d
00000160: 6ef7 9bbd c22a 4f3d fb5e dd3d 2000 b03d
00000170: 9761 113d 5746 27bd 88b4 17be 0228 193d
00000180: b0bc 56bd 799a 13bd dac2 9ebe b87f 983c
00000190: ca8c 343e 6a3e 103e 50b9 0ebe 8f2d c3bd
000001a0: c658 6b3d e613 203e 68ca 41be e057 123d
000001b0: e83c 07bd 0ca7 5dbd 81da ef3d 5f40 a63d
000001c0: cf07 41be 9bce 9a3c ae5f a0bc c3f1 273d
000001d0: ac07 953d 25a2 d7bd a2f6 aebe 818f ffbd
000001e0: 0b05 323d 8050 17bd d887 debd b288 50bd
000001f0: 2663 09be 67f1 37be 811c 92bd 9239 03be
-0.07565076 0.047264766 0.1600783 -0.031733967 0.042001378 -0.0040989 -0.09896194 -0.060050055
0.36704093 -0.026244083 -0.023439558 0.34500486 -0.040189996 0.19786182 0.27834982 -0.10542098
0.062214654 -0.109700665 0.003639133 0.07788141 0.099396974 -0.101517834 0.26364547 -0.15457147
0.093589306 -0.009984012 0.06550967 0.31258258 -0.0012006448 0.17373201 0.07849003 -0.28756317
-0.08730156 0.11650159 0.030529452 0.0092073195 -0.050586954 -0.080029115 -0.006193612 0.1863867
0.021616103 0.30011907 0.23241942 -0.26200157 -0.23508221 0.046078302 -0.09453958 -0.11401439
0.18519217 -0.022107748 0.15043789 0.09742745 -0.011631077 -0.08941017 -0.15439524 -0.042314913
-0.005380283 -0.036097977 -0.06445527 -0.35333696 -0.058866397 -0.21500124 0.3003853 0.010945087
-0.077973016 0.07149779 0.29277566 -0.033547718 0.5187518 -0.1372483 0.21117958 0.06761645
-0.25805905 0.11563341 -0.019001147 -0.035602685 0.04548533 0.12091292 -0.043424487 0.111601874
-0.06358421 0.033095974 0.01838682 0.043639973 -0.07686308 0.09410539 -0.05890582 0.04760142
-0.07615553 0.050577886 0.10809132 0.08593774 0.03549346 -0.040838566 -0.14814961 0.03739167
-0.05242604 -0.03603599 -0.31008035 0.018615589 0.17631832 0.14086309 -0.13937879 -0.09530174
0.057457708 0.1563259 -0.18924868 0.035728335 -0.03301707 -0.054114386 0.11711598 0.081177466
-0.18850635 0.018897345 -0.019576874 0.041002046 0.07276854 -0.105289735 -0.3417254 -0.12478543
0.04346184 -0.036942005 -0.10865754 -0.050911613 -0.13416728 -0.17963181 -0.07134343 -0.1281493

_orig_mod.value.4.weight f4 [1, 128]
00000000: 1e03 b9bd 5f41 37be 0f13 09bf 7913 04bd
00000010: 0324 0bbe 7fa5 2bbe a99e b5bd 9d46 9f3d
00000020: 35b1 673e 7858 e83d ff95 d63c 34fe 3a3e
00000030: ec9b b43e cd4a 243e f95f cc3e 481b 443d
00000040: 65d0 c2bd 93d4 2c3e adbf 993c dbeb 303d
00000050: 25dc 1e3e 6687 b43d 3c99 4fbe 7f96 4ebe
00000060: c2a1 1a3e e871 f1bc f616 07be 7e6a e1be
00000070: c2ec acbe 2cf7 183e 1be6 72be ece3 223f
00000080: 3e4e 2e3e a7c3 84be c30f 73bd da3e 8cbc
00000090: 0e9e 03bd ba74 173e 2ea0 3f3e 2f61 f1bd
000000a0: 770a a33c 3138 253e 5ede f33e 40d0 30be
000000b0: bd7e a0be f901 953c 64f1 8fbd 9d11 1a3d
000000c0: ee51 afbc 553c 7dbc 6f64 283f e07f 983d
000000d0: 83bf ab3c 18b9 50bc cebe c43d 31b7 d9bc
000000e0: 3914 76bb fbac 263c a802 f1bc ab84 a03e
000000f0: db5f 5f3c e397 6b3e 4bfb b23e 5c4e 773e
00000100: d1e1 efbc 63c2 c63d 425f 853e 85fb 833c
00000110: 4d54 bb3f 3088 553e 5b02 ba3e 82e0 02be
00000120: f9c1 90be f036 3d3e c1e2 ca3c 4a86 43be
00000130: 38ef 113d 2848 e73d 3dd2 1c3c e9a4 f0be
00000140: 6526 b5bd 5058 17be fb0d bb3e 699f 92bc
00000150: 6f68 79bc 59fb 213e 1616 a1bc 35be 0fbe
00000160: 892e 84bb e75f 973c 2e91 2e3d 09b3 b1be
00000170: 3207 113d 479f a9bc 5f39 48be 4f2c 41bd
00000180: f87f 083e 4078 11bd 525a 8e3e 5ed8 0e3d
00000190: 711e 1a3e ffad 0fbe 5e6a 1f3f 14e6 753d
000001a0: 5832 003d fb98 30be 2de9 ccbd 618e 8dbc
000001b0: 9bef f8bc c432 ab3c 40d3 fc3e 09e8 cf3d
000001c0: 7aef 29be 2ec3 a7be 70a2 3c3e ffbf 37bf
000001d0: d72e f43c 2256 c93e 7f67 3cbe ce13 36be
000001e0: 9585 37be 52c2 2f3e 40b0 983d d2ef d93d
000001f0: 0f77 0ebe eed3 25be c887 9bbe 88c3 b33e
-0.09033798 -0.17896031 -0.53544706 -0.032245133 -0.13587956 -0.1676235 -0.08868153 0.0777714
0.22626193 0.11344999 0.02619457 0.18261033 0.3527521 0.16044159 0.3991697 0.04787758
-0.09512404 0.16877966 0.018768156 0.04319368 0.15513666 0.08814888 -0.20273298 -0.20174597
0.15100768 -0.02947326 -0.13192353 -0.4402656 -0.33774382 0.14938039 -0.23720591 0.6362903
0.17022035 -0.2593052 -0.059341203 -0.017119814 -0.032133155 0.14790621 0.18713447 -0.117861144
0.019902451 0.16134717 0.4763059 -0.17266941 -0.31346694 0.018189417 -0.070284635 0.037614454
-0.021401372 -0.015456279 0.6577825 0.07446265 0.020965343 -0.012739442 0.096067056 -0.02657661
-0.0037548675 0.010173078 -0.029420212 0.31351218 0.013633694 0.23007159 0.34957346 0.24150985
-0.029282482 0.09705045 0.26049238 0.016111145 1.4635102 0.20852733 0.36329922 -0.12780955
-0.2827299 0.18477988 0.024766328 -0.19094196 0.035628527 0.112930596 0.009571609 -0.47000816
-0.08845214 -0.14779782 0.36534104 -0.017898278 -0.015222653 0.15818538 -0.019663852 -0.14037402
-0.0040338677 0.018478347 0.042618923 -0.34706905 0.035407253 -0.020705832 -0.19553135 -0.047161397
0.13330066 -0.03551507 0.27803284 0.034874313 0.15050675 -0.14031218 0.6227168 0.060033873
0.03129801 -0.17245857 -0.10005412 -0.017279806 -0.03038769 0.02089823 0.4937992 0.10151679
-0.1659526 -0.32766098 0.1842134 -0.7177734 0.029807491 0.39323527 -0.18398856 -0.17780992
-0.17922051 0.17163971 0.07455492 0.10641445 -0.13912605 -0.16194126 -0.3037703 0.35110116
